{"format": "graph-model", "generatedBy": "2.19.0", "convertedBy": "TensorFlow.js Converter v1.2.6", "modelTopology": {"node": [{"name": "input", "op": "Placeholder", "attr": {"dtype": {"type": "DT_FLOAT"}, "shape": {"shape": {"dim": [{"size": "1"}, {"size": "518"}, {"size": "518"}, {"size": "3"}]}}}}, {"name": "unknown_230", "op": "Const", "attr": {"value": {"tensor": {"dtype": "DT_INT32", "tensorShape": {"dim": [{"size": "2"}]}}}, "dtype": {"type": "DT_INT32"}}}, {"name": "unknown_234", "op": "Const", "attr": {"value": {"tensor": {"dtype": "DT_FLOAT", "tensorShape": {"dim": [{"size": "1"}]}}}, "dtype": {"type": "DT_FLOAT"}}}, {"name": "unknown_233", "op": "Const", "attr": {"value": {"tensor": {"dtype": "DT_FLOAT", "tensorShape": {"dim": [{"size": "1"}, {"size": "1"}, {"size": "32"}, {"size": "1"}]}}}, "dtype": {"type": "DT_FLOAT"}}}, {"name": "unknown_232", "op": "Const", "attr": {"value": {"tensor": {"dtype": "DT_FLOAT", "tensorShape": {"dim": [{"size": "32"}]}}}, "dtype": {"type": "DT_FLOAT"}}}, {"name": "unknown_231", "op": "Const", "attr": {"value": {"tensor": {"dtype": "DT_FLOAT", "tensorShape": {"dim": [{"size": "3"}, {"size": "3"}, {"size": "32"}, {"size": "32"}]}}}, "dtype": {"type": "DT_FLOAT"}}}, {"name": "unknown_229", "op": "Const", "attr": {"value": {"tensor": {"dtype": "DT_FLOAT", "tensorShape": {"dim": [{"size": "32"}]}}}, "dtype": {"type": "DT_FLOAT"}}}, {"name": "unknown_228", "op": "Const", "attr": {"value": {"tensor": {"dtype": "DT_FLOAT", "tensorShape": {"dim": [{"size": "3"}, {"size": "3"}, {"size": "64"}, {"size": "32"}]}}}, "dtype": {"type": "DT_FLOAT"}}}, {"name": "unknown_227", "op": "Const", "attr": {"value": {"tensor": {"dtype": "DT_FLOAT", "tensorShape": {"dim": [{"size": "64"}]}}}, "dtype": {"type": "DT_FLOAT"}}}, {"name": "unknown_226", "op": "Const", "attr": {"dtype": {"type": "DT_FLOAT"}, "value": {"tensor": {"dtype": "DT_FLOAT", "tensorShape": {"dim": [{"size": "1"}, {"size": "1"}, {"size": "64"}, {"size": "64"}]}}}}}, {"name": "PartitionedCall/model_326/tf.compat.v1.image.resize_bilinear_3/ResizeBilinear/size", "op": "Const", "attr": {"value": {"tensor": {"dtype": "DT_INT32", "tensorShape": {"dim": [{"size": "2"}]}}}, "dtype": {"type": "DT_INT32"}}}, {"name": "unknown_225", "op": "Const", "attr": {"value": {"tensor": {"dtype": "DT_FLOAT", "tensorShape": {"dim": [{"size": "64"}]}}}, "dtype": {"type": "DT_FLOAT"}}}, {"name": "unknown_224", "op": "Const", "attr": {"value": {"tensor": {"dtype": "DT_FLOAT", "tensorShape": {"dim": [{"size": "3"}, {"size": "3"}, {"size": "64"}, {"size": "64"}]}}}, "dtype": {"type": "DT_FLOAT"}}}, {"name": "unknown_223", "op": "Const", "attr": {"dtype": {"type": "DT_FLOAT"}, "value": {"tensor": {"dtype": "DT_FLOAT", "tensorShape": {"dim": [{"size": "64"}]}}}}}, {"name": "unknown_222", "op": "Const", "attr": {"value": {"tensor": {"dtype": "DT_FLOAT", "tensorShape": {"dim": [{"size": "3"}, {"size": "3"}, {"size": "64"}, {"size": "64"}]}}}, "dtype": {"type": "DT_FLOAT"}}}, {"name": "unknown_217", "op": "Const", "attr": {"value": {"tensor": {"dtype": "DT_FLOAT", "tensorShape": {"dim": [{"size": "3"}, {"size": "3"}, {"size": "64"}, {"size": "64"}]}}}, "dtype": {"type": "DT_FLOAT"}}}, {"name": "unknown_215", "op": "Const", "attr": {"value": {"tensor": {"dtype": "DT_FLOAT", "tensorShape": {"dim": [{"size": "64"}]}}}, "dtype": {"type": "DT_FLOAT"}}}, {"name": "unknown_213", "op": "Const", "attr": {"value": {"tensor": {"dtype": "DT_FLOAT", "tensorShape": {"dim": [{"size": "3"}, {"size": "3"}, {"size": "64"}, {"size": "64"}]}}}, "dtype": {"type": "DT_FLOAT"}}}, {"name": "unknown_211", "op": "Const", "attr": {"value": {"tensor": {"dtype": "DT_FLOAT", "tensorShape": {"dim": [{"size": "3"}, {"size": "3"}, {"size": "48"}, {"size": "64"}]}}}, "dtype": {"type": "DT_FLOAT"}}}, {"name": "unknown_208", "op": "Const", "attr": {"value": {"tensor": {"dtype": "DT_FLOAT", "tensorShape": {"dim": [{"size": "48"}]}}}, "dtype": {"type": "DT_FLOAT"}}}, {"name": "unknown_206", "op": "Const", "attr": {"value": {"tensor": {"dtype": "DT_FLOAT", "tensorShape": {"dim": [{"size": "1"}, {"size": "1"}, {"size": "384"}, {"size": "48"}]}}}, "dtype": {"type": "DT_FLOAT"}}}, {"name": "PartitionedCall/model_326/tf.compat.v1.transpose_308/transpose/perm", "op": "Const", "attr": {"value": {"tensor": {"dtype": "DT_INT32", "tensorShape": {"dim": [{"size": "4"}]}}}, "dtype": {"type": "DT_INT32"}}}, {"name": "PartitionedCall/model_326/tf.reshape_86/Reshape/shape", "op": "Const", "attr": {"value": {"tensor": {"dtype": "DT_INT32", "tensorShape": {"dim": [{"size": "4"}]}}}, "dtype": {"type": "DT_INT32"}}}, {"name": "PartitionedCall/model_326/tf.compat.v1.transpose_303/transpose/perm", "op": "Const", "attr": {"value": {"tensor": {"dtype": "DT_INT32", "tensorShape": {"dim": [{"size": "3"}]}}}, "dtype": {"type": "DT_INT32"}}}, {"name": "PartitionedCall/model_326/tf.strided_slice_3/StridedSlice/strides", "op": "Const", "attr": {"value": {"tensor": {"dtype": "DT_INT64", "tensorShape": {"dim": [{"size": "3"}]}}}, "dtype": {"type": "DT_INT64"}}}, {"name": "unknown_162", "op": "Const", "attr": {"value": {"tensor": {"dtype": "DT_INT64", "tensorShape": {"dim": [{"size": "3"}]}}}, "dtype": {"type": "DT_INT64"}}}, {"name": "unknown_161", "op": "Const", "attr": {"value": {"tensor": {"dtype": "DT_INT64", "tensorShape": {"dim": [{"size": "3"}]}}}, "dtype": {"type": "DT_INT64"}}}, {"name": "unknown_160", "op": "Const", "attr": {"value": {"tensor": {"dtype": "DT_FLOAT", "tensorShape": {"dim": [{"size": "1"}, {"size": "1"}, {"size": "384"}]}}}, "dtype": {"type": "DT_FLOAT"}}}, {"name": "PartitionedCall/model_326/tf.math.multiply_722/Mul/y", "op": "Const", "attr": {"value": {"tensor": {"dtype": "DT_FLOAT", "tensorShape": {"dim": [{"size": "1"}, {"size": "1"}, {"size": "384"}]}}}, "dtype": {"type": "DT_FLOAT"}}}, {"name": "PartitionedCall/model_326/tf.math.reduce_mean_93/Mean/reduction_indices", "op": "Const", "attr": {"value": {"tensor": {"dtype": "DT_INT32", "tensorShape": {"dim": [{"size": "1"}]}}}, "dtype": {"type": "DT_INT32"}}}, {"name": "PartitionedCall/model_326/tf.math.multiply_520/Mul/y", "op": "Const", "attr": {"value": {"tensor": {"dtype": "DT_FLOAT", "tensorShape": {"dim": [{"size": "1"}, {"size": "1"}, {"size": "384"}]}}}, "dtype": {"type": "DT_FLOAT"}}}, {"name": "unknown_119", "op": "Const", "attr": {"value": {"tensor": {"dtype": "DT_FLOAT", "tensorShape": {"dim": [{"size": "1"}, {"size": "1"}, {"size": "384"}]}}}, "dtype": {"type": "DT_FLOAT"}}}, {"name": "unknown_118", "op": "Const", "attr": {"value": {"tensor": {"dtype": "DT_FLOAT", "tensorShape": {"dim": [{"size": "1536"}, {"size": "384"}]}}}, "dtype": {"type": "DT_FLOAT"}}}, {"name": "PartitionedCall/model_326/tf.math.multiply_704/Mul/y", "op": "Const", "attr": {"value": {"tensor": {"dtype": "DT_FLOAT", "tensorShape": {}}}, "dtype": {"type": "DT_FLOAT"}}}, {"name": "unknown_116", "op": "Const", "attr": {"dtype": {"type": "DT_FLOAT"}, "value": {"tensor": {"dtype": "DT_FLOAT", "tensorShape": {"dim": [{"size": "1"}, {"size": "1"}, {"size": "1536"}]}}}}}, {"name": "unknown_115", "op": "Const", "attr": {"value": {"tensor": {"dtype": "DT_FLOAT", "tensorShape": {"dim": [{"size": "384"}, {"size": "1536"}]}}}, "dtype": {"type": "DT_FLOAT"}}}, {"name": "unknown_114", "op": "Const", "attr": {"value": {"tensor": {"dtype": "DT_FLOAT", "tensorShape": {"dim": [{"size": "1"}, {"size": "1"}, {"size": "384"}]}}}, "dtype": {"type": "DT_FLOAT"}}}, {"name": "PartitionedCall/model_326/tf.math.multiply_489/Mul/y", "op": "Const", "attr": {"value": {"tensor": {"dtype": "DT_FLOAT", "tensorShape": {"dim": [{"size": "1"}, {"size": "1"}, {"size": "384"}]}}}, "dtype": {"type": "DT_FLOAT"}}}, {"name": "unknown_112", "op": "Const", "attr": {"value": {"tensor": {"dtype": "DT_FLOAT", "tensorShape": {"dim": [{"size": "1"}, {"size": "1"}, {"size": "384"}]}}}, "dtype": {"type": "DT_FLOAT"}}}, {"name": "unknown_111", "op": "Const", "attr": {"value": {"tensor": {"dtype": "DT_FLOAT", "tensorShape": {"dim": [{"size": "384"}, {"size": "384"}]}}}, "dtype": {"type": "DT_FLOAT"}}}, {"name": "PartitionedCall/model_326/tf.reshape_83/Reshape/shape", "op": "Const", "attr": {"value": {"tensor": {"dtype": "DT_INT32", "tensorShape": {"dim": [{"size": "3"}]}}}, "dtype": {"type": "DT_INT32"}}}, {"name": "PartitionedCall/model_326/tf.compat.v1.transpose_288/transpose/perm", "op": "Const", "attr": {"dtype": {"type": "DT_INT32"}, "value": {"tensor": {"dtype": "DT_INT32", "tensorShape": {"dim": [{"size": "4"}]}}}}}, {"name": "PartitionedCall/model_326/tf.compat.v1.gather_33/GatherV2/indices", "op": "Const", "attr": {"dtype": {"type": "DT_INT32"}, "value": {"tensor": {"dtype": "DT_INT32", "tensorShape": {}}}}}, {"name": "PartitionedCall/model_326/tf.compat.v1.gather_35/GatherV2/indices", "op": "Const", "attr": {"value": {"tensor": {"dtype": "DT_INT32", "tensorShape": {}}}, "dtype": {"type": "DT_INT32"}}}, {"name": "PartitionedCall/model_326/tf.compat.v1.transpose_285/transpose/perm", "op": "Const", "attr": {"value": {"tensor": {"dtype": "DT_INT32", "tensorShape": {"dim": [{"size": "5"}]}}}, "dtype": {"type": "DT_INT32"}}}, {"name": "PartitionedCall/model_326/tf.reshape_77/Reshape/shape", "op": "Const", "attr": {"value": {"tensor": {"dtype": "DT_INT32", "tensorShape": {"dim": [{"size": "5"}]}}}, "dtype": {"type": "DT_INT32"}}}, {"name": "unknown_110", "op": "Const", "attr": {"value": {"tensor": {"dtype": "DT_FLOAT", "tensorShape": {"dim": [{"size": "1"}, {"size": "1"}, {"size": "1152"}]}}}, "dtype": {"type": "DT_FLOAT"}}}, {"name": "unknown_109", "op": "Const", "attr": {"value": {"tensor": {"dtype": "DT_FLOAT", "tensorShape": {"dim": [{"size": "384"}, {"size": "1152"}]}}}, "dtype": {"type": "DT_FLOAT"}}}, {"name": "unknown_108", "op": "Const", "attr": {"value": {"tensor": {"dtype": "DT_FLOAT", "tensorShape": {"dim": [{"size": "1"}, {"size": "1"}, {"size": "384"}]}}}, "dtype": {"type": "DT_FLOAT"}}}, {"name": "PartitionedCall/model_326/tf.math.multiply_462/Mul/y", "op": "Const", "attr": {"value": {"tensor": {"dtype": "DT_FLOAT", "tensorShape": {"dim": [{"size": "1"}, {"size": "1"}, {"size": "384"}]}}}, "dtype": {"type": "DT_FLOAT"}}}, {"name": "unknown_106", "op": "Const", "attr": {"value": {"tensor": {"dtype": "DT_FLOAT", "tensorShape": {"dim": [{"size": "1"}, {"size": "1"}, {"size": "384"}]}}}, "dtype": {"type": "DT_FLOAT"}}}, {"name": "unknown_105", "op": "Const", "attr": {"value": {"tensor": {"dtype": "DT_FLOAT", "tensorShape": {"dim": [{"size": "1536"}, {"size": "384"}]}}}, "dtype": {"type": "DT_FLOAT"}}}, {"name": "unknown_103", "op": "Const", "attr": {"value": {"tensor": {"dtype": "DT_FLOAT", "tensorShape": {"dim": [{"size": "1"}, {"size": "1"}, {"size": "1536"}]}}}, "dtype": {"type": "DT_FLOAT"}}}, {"name": "unknown_102", "op": "Const", "attr": {"value": {"tensor": {"dtype": "DT_FLOAT", "tensorShape": {"dim": [{"size": "384"}, {"size": "1536"}]}}}, "dtype": {"type": "DT_FLOAT"}}}, {"name": "unknown_101", "op": "Const", "attr": {"value": {"tensor": {"dtype": "DT_FLOAT", "tensorShape": {"dim": [{"size": "1"}, {"size": "1"}, {"size": "384"}]}}}, "dtype": {"type": "DT_FLOAT"}}}, {"name": "PartitionedCall/model_326/tf.math.multiply_431/Mul/y", "op": "Const", "attr": {"value": {"tensor": {"dtype": "DT_FLOAT", "tensorShape": {"dim": [{"size": "1"}, {"size": "1"}, {"size": "384"}]}}}, "dtype": {"type": "DT_FLOAT"}}}, {"name": "unknown_99", "op": "Const", "attr": {"value": {"tensor": {"dtype": "DT_FLOAT", "tensorShape": {"dim": [{"size": "1"}, {"size": "1"}, {"size": "384"}]}}}, "dtype": {"type": "DT_FLOAT"}}}, {"name": "unknown_98", "op": "Const", "attr": {"value": {"tensor": {"dtype": "DT_FLOAT", "tensorShape": {"dim": [{"size": "384"}, {"size": "384"}]}}}, "dtype": {"type": "DT_FLOAT"}}}, {"name": "unknown_97", "op": "Const", "attr": {"value": {"tensor": {"dtype": "DT_FLOAT", "tensorShape": {"dim": [{"size": "1"}, {"size": "1"}, {"size": "1152"}]}}}, "dtype": {"type": "DT_FLOAT"}}}, {"name": "unknown_96", "op": "Const", "attr": {"value": {"tensor": {"dtype": "DT_FLOAT", "tensorShape": {"dim": [{"size": "384"}, {"size": "1152"}]}}}, "dtype": {"type": "DT_FLOAT"}}}, {"name": "unknown_95", "op": "Const", "attr": {"value": {"tensor": {"dtype": "DT_FLOAT", "tensorShape": {"dim": [{"size": "1"}, {"size": "1"}, {"size": "384"}]}}}, "dtype": {"type": "DT_FLOAT"}}}, {"name": "PartitionedCall/model_326/tf.math.multiply_404/Mul/y", "op": "Const", "attr": {"value": {"tensor": {"dtype": "DT_FLOAT", "tensorShape": {"dim": [{"size": "1"}, {"size": "1"}, {"size": "384"}]}}}, "dtype": {"type": "DT_FLOAT"}}}, {"name": "unknown_93", "op": "Const", "attr": {"value": {"tensor": {"dtype": "DT_FLOAT", "tensorShape": {"dim": [{"size": "1"}, {"size": "1"}, {"size": "384"}]}}}, "dtype": {"type": "DT_FLOAT"}}}, {"name": "unknown_92", "op": "Const", "attr": {"value": {"tensor": {"dtype": "DT_FLOAT", "tensorShape": {"dim": [{"size": "1536"}, {"size": "384"}]}}}, "dtype": {"type": "DT_FLOAT"}}}, {"name": "unknown_90", "op": "Const", "attr": {"value": {"tensor": {"dtype": "DT_FLOAT", "tensorShape": {"dim": [{"size": "1"}, {"size": "1"}, {"size": "1536"}]}}}, "dtype": {"type": "DT_FLOAT"}}}, {"name": "unknown_89", "op": "Const", "attr": {"value": {"tensor": {"dtype": "DT_FLOAT", "tensorShape": {"dim": [{"size": "384"}, {"size": "1536"}]}}}, "dtype": {"type": "DT_FLOAT"}}}, {"name": "unknown_88", "op": "Const", "attr": {"value": {"tensor": {"dtype": "DT_FLOAT", "tensorShape": {"dim": [{"size": "1"}, {"size": "1"}, {"size": "384"}]}}}, "dtype": {"type": "DT_FLOAT"}}}, {"name": "PartitionedCall/model_326/tf.math.multiply_373/Mul/y", "op": "Const", "attr": {"dtype": {"type": "DT_FLOAT"}, "value": {"tensor": {"dtype": "DT_FLOAT", "tensorShape": {"dim": [{"size": "1"}, {"size": "1"}, {"size": "384"}]}}}}}, {"name": "unknown_86", "op": "Const", "attr": {"value": {"tensor": {"dtype": "DT_FLOAT", "tensorShape": {"dim": [{"size": "1"}, {"size": "1"}, {"size": "384"}]}}}, "dtype": {"type": "DT_FLOAT"}}}, {"name": "unknown_85", "op": "Const", "attr": {"value": {"tensor": {"dtype": "DT_FLOAT", "tensorShape": {"dim": [{"size": "384"}, {"size": "384"}]}}}, "dtype": {"type": "DT_FLOAT"}}}, {"name": "unknown_84", "op": "Const", "attr": {"value": {"tensor": {"dtype": "DT_FLOAT", "tensorShape": {"dim": [{"size": "1"}, {"size": "1"}, {"size": "1152"}]}}}, "dtype": {"type": "DT_FLOAT"}}}, {"name": "unknown_83", "op": "Const", "attr": {"value": {"tensor": {"dtype": "DT_FLOAT", "tensorShape": {"dim": [{"size": "384"}, {"size": "1152"}]}}}, "dtype": {"type": "DT_FLOAT"}}}, {"name": "unknown_82", "op": "Const", "attr": {"value": {"tensor": {"dtype": "DT_FLOAT", "tensorShape": {"dim": [{"size": "1"}, {"size": "1"}, {"size": "384"}]}}}, "dtype": {"type": "DT_FLOAT"}}}, {"name": "PartitionedCall/model_326/tf.math.multiply_346/Mul/y", "op": "Const", "attr": {"value": {"tensor": {"dtype": "DT_FLOAT", "tensorShape": {"dim": [{"size": "1"}, {"size": "1"}, {"size": "384"}]}}}, "dtype": {"type": "DT_FLOAT"}}}, {"name": "unknown_80", "op": "Const", "attr": {"value": {"tensor": {"dtype": "DT_FLOAT", "tensorShape": {"dim": [{"size": "1"}, {"size": "1"}, {"size": "384"}]}}}, "dtype": {"type": "DT_FLOAT"}}}, {"name": "unknown_79", "op": "Const", "attr": {"value": {"tensor": {"dtype": "DT_FLOAT", "tensorShape": {"dim": [{"size": "1536"}, {"size": "384"}]}}}, "dtype": {"type": "DT_FLOAT"}}}, {"name": "unknown_77", "op": "Const", "attr": {"dtype": {"type": "DT_FLOAT"}, "value": {"tensor": {"dtype": "DT_FLOAT", "tensorShape": {"dim": [{"size": "1"}, {"size": "1"}, {"size": "1536"}]}}}}}, {"name": "unknown_76", "op": "Const", "attr": {"value": {"tensor": {"dtype": "DT_FLOAT", "tensorShape": {"dim": [{"size": "384"}, {"size": "1536"}]}}}, "dtype": {"type": "DT_FLOAT"}}}, {"name": "unknown_75", "op": "Const", "attr": {"value": {"tensor": {"dtype": "DT_FLOAT", "tensorShape": {"dim": [{"size": "1"}, {"size": "1"}, {"size": "384"}]}}}, "dtype": {"type": "DT_FLOAT"}}}, {"name": "PartitionedCall/model_326/tf.math.multiply_315/Mul/y", "op": "Const", "attr": {"value": {"tensor": {"dtype": "DT_FLOAT", "tensorShape": {"dim": [{"size": "1"}, {"size": "1"}, {"size": "384"}]}}}, "dtype": {"type": "DT_FLOAT"}}}, {"name": "unknown_73", "op": "Const", "attr": {"value": {"tensor": {"dtype": "DT_FLOAT", "tensorShape": {"dim": [{"size": "1"}, {"size": "1"}, {"size": "384"}]}}}, "dtype": {"type": "DT_FLOAT"}}}, {"name": "unknown_72", "op": "Const", "attr": {"value": {"tensor": {"dtype": "DT_FLOAT", "tensorShape": {"dim": [{"size": "384"}, {"size": "384"}]}}}, "dtype": {"type": "DT_FLOAT"}}}, {"name": "unknown_71", "op": "Const", "attr": {"dtype": {"type": "DT_FLOAT"}, "value": {"tensor": {"dtype": "DT_FLOAT", "tensorShape": {"dim": [{"size": "1"}, {"size": "1"}, {"size": "1152"}]}}}}}, {"name": "unknown_70", "op": "Const", "attr": {"dtype": {"type": "DT_FLOAT"}, "value": {"tensor": {"dtype": "DT_FLOAT", "tensorShape": {"dim": [{"size": "384"}, {"size": "1152"}]}}}}}, {"name": "unknown_69", "op": "Const", "attr": {"value": {"tensor": {"dtype": "DT_FLOAT", "tensorShape": {"dim": [{"size": "1"}, {"size": "1"}, {"size": "384"}]}}}, "dtype": {"type": "DT_FLOAT"}}}, {"name": "PartitionedCall/model_326/tf.math.multiply_288/Mul/y", "op": "Const", "attr": {"value": {"tensor": {"dtype": "DT_FLOAT", "tensorShape": {"dim": [{"size": "1"}, {"size": "1"}, {"size": "384"}]}}}, "dtype": {"type": "DT_FLOAT"}}}, {"name": "unknown_67", "op": "Const", "attr": {"dtype": {"type": "DT_FLOAT"}, "value": {"tensor": {"dtype": "DT_FLOAT", "tensorShape": {"dim": [{"size": "1"}, {"size": "1"}, {"size": "384"}]}}}}}, {"name": "unknown_66", "op": "Const", "attr": {"dtype": {"type": "DT_FLOAT"}, "value": {"tensor": {"dtype": "DT_FLOAT", "tensorShape": {"dim": [{"size": "1536"}, {"size": "384"}]}}}}}, {"name": "unknown_64", "op": "Const", "attr": {"value": {"tensor": {"dtype": "DT_FLOAT", "tensorShape": {"dim": [{"size": "1"}, {"size": "1"}, {"size": "1536"}]}}}, "dtype": {"type": "DT_FLOAT"}}}, {"name": "unknown_63", "op": "Const", "attr": {"value": {"tensor": {"dtype": "DT_FLOAT", "tensorShape": {"dim": [{"size": "384"}, {"size": "1536"}]}}}, "dtype": {"type": "DT_FLOAT"}}}, {"name": "unknown_62", "op": "Const", "attr": {"value": {"tensor": {"dtype": "DT_FLOAT", "tensorShape": {"dim": [{"size": "1"}, {"size": "1"}, {"size": "384"}]}}}, "dtype": {"type": "DT_FLOAT"}}}, {"name": "PartitionedCall/model_326/tf.math.multiply_257/Mul/y", "op": "Const", "attr": {"value": {"tensor": {"dtype": "DT_FLOAT", "tensorShape": {"dim": [{"size": "1"}, {"size": "1"}, {"size": "384"}]}}}, "dtype": {"type": "DT_FLOAT"}}}, {"name": "unknown_60", "op": "Const", "attr": {"value": {"tensor": {"dtype": "DT_FLOAT", "tensorShape": {"dim": [{"size": "1"}, {"size": "1"}, {"size": "384"}]}}}, "dtype": {"type": "DT_FLOAT"}}}, {"name": "unknown_59", "op": "Const", "attr": {"dtype": {"type": "DT_FLOAT"}, "value": {"tensor": {"dtype": "DT_FLOAT", "tensorShape": {"dim": [{"size": "384"}, {"size": "384"}]}}}}}, {"name": "unknown_58", "op": "Const", "attr": {"value": {"tensor": {"dtype": "DT_FLOAT", "tensorShape": {"dim": [{"size": "1"}, {"size": "1"}, {"size": "1152"}]}}}, "dtype": {"type": "DT_FLOAT"}}}, {"name": "unknown_57", "op": "Const", "attr": {"value": {"tensor": {"dtype": "DT_FLOAT", "tensorShape": {"dim": [{"size": "384"}, {"size": "1152"}]}}}, "dtype": {"type": "DT_FLOAT"}}}, {"name": "unknown_56", "op": "Const", "attr": {"dtype": {"type": "DT_FLOAT"}, "value": {"tensor": {"dtype": "DT_FLOAT", "tensorShape": {"dim": [{"size": "1"}, {"size": "1"}, {"size": "384"}]}}}}}, {"name": "PartitionedCall/model_326/tf.math.multiply_230/Mul/y", "op": "Const", "attr": {"value": {"tensor": {"dtype": "DT_FLOAT", "tensorShape": {"dim": [{"size": "1"}, {"size": "1"}, {"size": "384"}]}}}, "dtype": {"type": "DT_FLOAT"}}}, {"name": "unknown_54", "op": "Const", "attr": {"value": {"tensor": {"dtype": "DT_FLOAT", "tensorShape": {"dim": [{"size": "1"}, {"size": "1"}, {"size": "384"}]}}}, "dtype": {"type": "DT_FLOAT"}}}, {"name": "unknown_53", "op": "Const", "attr": {"value": {"tensor": {"dtype": "DT_FLOAT", "tensorShape": {"dim": [{"size": "1536"}, {"size": "384"}]}}}, "dtype": {"type": "DT_FLOAT"}}}, {"name": "unknown_51", "op": "Const", "attr": {"value": {"tensor": {"dtype": "DT_FLOAT", "tensorShape": {"dim": [{"size": "1"}, {"size": "1"}, {"size": "1536"}]}}}, "dtype": {"type": "DT_FLOAT"}}}, {"name": "unknown_50", "op": "Const", "attr": {"value": {"tensor": {"dtype": "DT_FLOAT", "tensorShape": {"dim": [{"size": "384"}, {"size": "1536"}]}}}, "dtype": {"type": "DT_FLOAT"}}}, {"name": "unknown_49", "op": "Const", "attr": {"value": {"tensor": {"dtype": "DT_FLOAT", "tensorShape": {"dim": [{"size": "1"}, {"size": "1"}, {"size": "384"}]}}}, "dtype": {"type": "DT_FLOAT"}}}, {"name": "PartitionedCall/model_326/tf.math.multiply_199/Mul/y", "op": "Const", "attr": {"value": {"tensor": {"dtype": "DT_FLOAT", "tensorShape": {"dim": [{"size": "1"}, {"size": "1"}, {"size": "384"}]}}}, "dtype": {"type": "DT_FLOAT"}}}, {"name": "unknown_47", "op": "Const", "attr": {"value": {"tensor": {"dtype": "DT_FLOAT", "tensorShape": {"dim": [{"size": "1"}, {"size": "1"}, {"size": "384"}]}}}, "dtype": {"type": "DT_FLOAT"}}}, {"name": "unknown_46", "op": "Const", "attr": {"value": {"tensor": {"dtype": "DT_FLOAT", "tensorShape": {"dim": [{"size": "384"}, {"size": "384"}]}}}, "dtype": {"type": "DT_FLOAT"}}}, {"name": "unknown_45", "op": "Const", "attr": {"value": {"tensor": {"dtype": "DT_FLOAT", "tensorShape": {"dim": [{"size": "1"}, {"size": "1"}, {"size": "1152"}]}}}, "dtype": {"type": "DT_FLOAT"}}}, {"name": "unknown_44", "op": "Const", "attr": {"value": {"tensor": {"dtype": "DT_FLOAT", "tensorShape": {"dim": [{"size": "384"}, {"size": "1152"}]}}}, "dtype": {"type": "DT_FLOAT"}}}, {"name": "unknown_43", "op": "Const", "attr": {"value": {"tensor": {"dtype": "DT_FLOAT", "tensorShape": {"dim": [{"size": "1"}, {"size": "1"}, {"size": "384"}]}}}, "dtype": {"type": "DT_FLOAT"}}}, {"name": "PartitionedCall/model_326/tf.math.multiply_172/Mul/y", "op": "Const", "attr": {"value": {"tensor": {"dtype": "DT_FLOAT", "tensorShape": {"dim": [{"size": "1"}, {"size": "1"}, {"size": "384"}]}}}, "dtype": {"type": "DT_FLOAT"}}}, {"name": "unknown_41", "op": "Const", "attr": {"value": {"tensor": {"dtype": "DT_FLOAT", "tensorShape": {"dim": [{"size": "1"}, {"size": "1"}, {"size": "384"}]}}}, "dtype": {"type": "DT_FLOAT"}}}, {"name": "unknown_40", "op": "Const", "attr": {"value": {"tensor": {"dtype": "DT_FLOAT", "tensorShape": {"dim": [{"size": "1536"}, {"size": "384"}]}}}, "dtype": {"type": "DT_FLOAT"}}}, {"name": "unknown_38", "op": "Const", "attr": {"value": {"tensor": {"dtype": "DT_FLOAT", "tensorShape": {"dim": [{"size": "1"}, {"size": "1"}, {"size": "1536"}]}}}, "dtype": {"type": "DT_FLOAT"}}}, {"name": "unknown_37", "op": "Const", "attr": {"value": {"tensor": {"dtype": "DT_FLOAT", "tensorShape": {"dim": [{"size": "384"}, {"size": "1536"}]}}}, "dtype": {"type": "DT_FLOAT"}}}, {"name": "unknown_36", "op": "Const", "attr": {"value": {"tensor": {"dtype": "DT_FLOAT", "tensorShape": {"dim": [{"size": "1"}, {"size": "1"}, {"size": "384"}]}}}, "dtype": {"type": "DT_FLOAT"}}}, {"name": "PartitionedCall/model_326/tf.math.multiply_141/Mul/y", "op": "Const", "attr": {"value": {"tensor": {"dtype": "DT_FLOAT", "tensorShape": {"dim": [{"size": "1"}, {"size": "1"}, {"size": "384"}]}}}, "dtype": {"type": "DT_FLOAT"}}}, {"name": "unknown_34", "op": "Const", "attr": {"value": {"tensor": {"dtype": "DT_FLOAT", "tensorShape": {"dim": [{"size": "1"}, {"size": "1"}, {"size": "384"}]}}}, "dtype": {"type": "DT_FLOAT"}}}, {"name": "unknown_33", "op": "Const", "attr": {"value": {"tensor": {"dtype": "DT_FLOAT", "tensorShape": {"dim": [{"size": "384"}, {"size": "384"}]}}}, "dtype": {"type": "DT_FLOAT"}}}, {"name": "unknown_32", "op": "Const", "attr": {"value": {"tensor": {"dtype": "DT_FLOAT", "tensorShape": {"dim": [{"size": "1"}, {"size": "1"}, {"size": "1152"}]}}}, "dtype": {"type": "DT_FLOAT"}}}, {"name": "unknown_31", "op": "Const", "attr": {"value": {"tensor": {"dtype": "DT_FLOAT", "tensorShape": {"dim": [{"size": "384"}, {"size": "1152"}]}}}, "dtype": {"type": "DT_FLOAT"}}}, {"name": "unknown_30", "op": "Const", "attr": {"dtype": {"type": "DT_FLOAT"}, "value": {"tensor": {"dtype": "DT_FLOAT", "tensorShape": {"dim": [{"size": "1"}, {"size": "1"}, {"size": "384"}]}}}}}, {"name": "PartitionedCall/model_326/tf.math.multiply_114/Mul/y", "op": "Const", "attr": {"value": {"tensor": {"dtype": "DT_FLOAT", "tensorShape": {"dim": [{"size": "1"}, {"size": "1"}, {"size": "384"}]}}}, "dtype": {"type": "DT_FLOAT"}}}, {"name": "unknown_28", "op": "Const", "attr": {"value": {"tensor": {"dtype": "DT_FLOAT", "tensorShape": {"dim": [{"size": "1"}, {"size": "1"}, {"size": "384"}]}}}, "dtype": {"type": "DT_FLOAT"}}}, {"name": "unknown_27", "op": "Const", "attr": {"value": {"tensor": {"dtype": "DT_FLOAT", "tensorShape": {"dim": [{"size": "1536"}, {"size": "384"}]}}}, "dtype": {"type": "DT_FLOAT"}}}, {"name": "unknown_25", "op": "Const", "attr": {"value": {"tensor": {"dtype": "DT_FLOAT", "tensorShape": {"dim": [{"size": "1"}, {"size": "1"}, {"size": "1536"}]}}}, "dtype": {"type": "DT_FLOAT"}}}, {"name": "unknown_24", "op": "Const", "attr": {"value": {"tensor": {"dtype": "DT_FLOAT", "tensorShape": {"dim": [{"size": "384"}, {"size": "1536"}]}}}, "dtype": {"type": "DT_FLOAT"}}}, {"name": "unknown_23", "op": "Const", "attr": {"value": {"tensor": {"dtype": "DT_FLOAT", "tensorShape": {"dim": [{"size": "1"}, {"size": "1"}, {"size": "384"}]}}}, "dtype": {"type": "DT_FLOAT"}}}, {"name": "PartitionedCall/model_326/tf.math.multiply_83/Mul/y", "op": "Const", "attr": {"value": {"tensor": {"dtype": "DT_FLOAT", "tensorShape": {"dim": [{"size": "1"}, {"size": "1"}, {"size": "384"}]}}}, "dtype": {"type": "DT_FLOAT"}}}, {"name": "unknown_21", "op": "Const", "attr": {"value": {"tensor": {"dtype": "DT_FLOAT", "tensorShape": {"dim": [{"size": "1"}, {"size": "1"}, {"size": "384"}]}}}, "dtype": {"type": "DT_FLOAT"}}}, {"name": "unknown_20", "op": "Const", "attr": {"value": {"tensor": {"dtype": "DT_FLOAT", "tensorShape": {"dim": [{"size": "384"}, {"size": "384"}]}}}, "dtype": {"type": "DT_FLOAT"}}}, {"name": "unknown_19", "op": "Const", "attr": {"value": {"tensor": {"dtype": "DT_FLOAT", "tensorShape": {"dim": [{"size": "1"}, {"size": "1"}, {"size": "1152"}]}}}, "dtype": {"type": "DT_FLOAT"}}}, {"name": "unknown_18", "op": "Const", "attr": {"value": {"tensor": {"dtype": "DT_FLOAT", "tensorShape": {"dim": [{"size": "384"}, {"size": "1152"}]}}}, "dtype": {"type": "DT_FLOAT"}}}, {"name": "unknown_17", "op": "Const", "attr": {"value": {"tensor": {"dtype": "DT_FLOAT", "tensorShape": {"dim": [{"size": "1"}, {"size": "1"}, {"size": "384"}]}}}, "dtype": {"type": "DT_FLOAT"}}}, {"name": "PartitionedCall/model_326/tf.math.multiply_56/Mul/y", "op": "Const", "attr": {"value": {"tensor": {"dtype": "DT_FLOAT", "tensorShape": {"dim": [{"size": "1"}, {"size": "1"}, {"size": "384"}]}}}, "dtype": {"type": "DT_FLOAT"}}}, {"name": "unknown_15", "op": "Const", "attr": {"value": {"tensor": {"dtype": "DT_FLOAT", "tensorShape": {"dim": [{"size": "1"}, {"size": "1"}, {"size": "384"}]}}}, "dtype": {"type": "DT_FLOAT"}}}, {"name": "unknown_14", "op": "Const", "attr": {"dtype": {"type": "DT_FLOAT"}, "value": {"tensor": {"dtype": "DT_FLOAT", "tensorShape": {"dim": [{"size": "1536"}, {"size": "384"}]}}}}}, {"name": "unknown_12", "op": "Const", "attr": {"value": {"tensor": {"dtype": "DT_FLOAT", "tensorShape": {"dim": [{"size": "1"}, {"size": "1"}, {"size": "1536"}]}}}, "dtype": {"type": "DT_FLOAT"}}}, {"name": "unknown_11", "op": "Const", "attr": {"value": {"tensor": {"dtype": "DT_FLOAT", "tensorShape": {"dim": [{"size": "384"}, {"size": "1536"}]}}}, "dtype": {"type": "DT_FLOAT"}}}, {"name": "unknown_10", "op": "Const", "attr": {"value": {"tensor": {"dtype": "DT_FLOAT", "tensorShape": {"dim": [{"size": "1"}, {"size": "1"}, {"size": "384"}]}}}, "dtype": {"type": "DT_FLOAT"}}}, {"name": "PartitionedCall/model_326/tf.math.multiply_25/Mul/y", "op": "Const", "attr": {"value": {"tensor": {"dtype": "DT_FLOAT", "tensorShape": {"dim": [{"size": "1"}, {"size": "1"}, {"size": "384"}]}}}, "dtype": {"type": "DT_FLOAT"}}}, {"name": "unknown_8", "op": "Const", "attr": {"value": {"tensor": {"dtype": "DT_FLOAT", "tensorShape": {"dim": [{"size": "1"}, {"size": "1"}, {"size": "384"}]}}}, "dtype": {"type": "DT_FLOAT"}}}, {"name": "unknown_7", "op": "Const", "attr": {"value": {"tensor": {"dtype": "DT_FLOAT", "tensorShape": {"dim": [{"size": "384"}, {"size": "384"}]}}}, "dtype": {"type": "DT_FLOAT"}}}, {"name": "unknown_6", "op": "Const", "attr": {"value": {"tensor": {"dtype": "DT_FLOAT", "tensorShape": {"dim": [{"size": "1"}, {"size": "1"}, {"size": "1152"}]}}}, "dtype": {"type": "DT_FLOAT"}}}, {"name": "unknown_5", "op": "Const", "attr": {"value": {"tensor": {"dtype": "DT_FLOAT", "tensorShape": {"dim": [{"size": "384"}, {"size": "1152"}]}}}, "dtype": {"type": "DT_FLOAT"}}}, {"name": "unknown_4", "op": "Const", "attr": {"value": {"tensor": {"dtype": "DT_FLOAT", "tensorShape": {"dim": [{"size": "1"}, {"size": "1"}, {"size": "384"}]}}}, "dtype": {"type": "DT_FLOAT"}}}, {"name": "unknown_2", "op": "Const", "attr": {"value": {"tensor": {"dtype": "DT_FLOAT", "tensorShape": {"dim": [{"size": "1"}, {"size": "1370"}, {"size": "384"}]}}}, "dtype": {"type": "DT_FLOAT"}}}, {"name": "PartitionedCall/model_326/tf.compat.v1.gather_34/GatherV2/indices", "op": "Const", "attr": {"value": {"tensor": {"dtype": "DT_INT32", "tensorShape": {}}}, "dtype": {"type": "DT_INT32"}}}, {"name": "PartitionedCall/model_326/tf.reshape_2/Reshape/shape", "op": "Const", "attr": {"dtype": {"type": "DT_INT32"}, "value": {"tensor": {"dtype": "DT_INT32", "tensorShape": {"dim": [{"size": "3"}]}}}}}, {"name": "PartitionedCall/model_326/tf.compat.v1.transpose_2/transpose/perm", "op": "Const", "attr": {"value": {"tensor": {"dtype": "DT_INT32", "tensorShape": {"dim": [{"size": "4"}]}}}, "dtype": {"type": "DT_INT32"}}}, {"name": "unknown_0", "op": "Const", "attr": {"value": {"tensor": {"dtype": "DT_FLOAT", "tensorShape": {"dim": [{"size": "384"}]}}}, "dtype": {"type": "DT_FLOAT"}}}, {"name": "unknown", "op": "Const", "attr": {"value": {"tensor": {"dtype": "DT_FLOAT", "tensorShape": {"dim": [{"size": "14"}, {"size": "14"}, {"size": "3"}, {"size": "384"}]}}}, "dtype": {"type": "DT_FLOAT"}}}, {"name": "unknown_1", "op": "Const", "attr": {"value": {"tensor": {"dtype": "DT_FLOAT", "tensorShape": {"dim": [{"size": "1"}, {"size": "1"}, {"size": "384"}]}}}, "dtype": {"type": "DT_FLOAT"}}}, {"name": "unknown_152", "op": "Const", "attr": {"value": {"tensor": {"dtype": "DT_FLOAT", "tensorShape": {}}}, "dtype": {"type": "DT_FLOAT"}}}, {"name": "PartitionedCall/model_326/tf.math.multiply_11/Mul/y", "op": "Const", "attr": {"value": {"tensor": {"dtype": "DT_FLOAT", "tensorShape": {"dim": [{"size": "1"}, {"size": "1"}, {"size": "384"}]}}}, "dtype": {"type": "DT_FLOAT"}}}, {"name": "PartitionedCall/model_326/tf.compat.v1.transpose_287/transpose/perm", "op": "Const", "attr": {"value": {"tensor": {"dtype": "DT_INT32", "tensorShape": {"dim": [{"size": "4"}]}}}, "dtype": {"type": "DT_INT32"}}}, {"name": "PartitionedCall/model_326/tf.math.multiply_671/Mul/y", "op": "Const", "attr": {"dtype": {"type": "DT_FLOAT"}, "value": {"tensor": {"dtype": "DT_FLOAT", "tensorShape": {}}}}}, {"name": "PartitionedCall/model_326/tf.math.multiply_38/Mul/y", "op": "Const", "attr": {"dtype": {"type": "DT_FLOAT"}, "value": {"tensor": {"dtype": "DT_FLOAT", "tensorShape": {"dim": [{"size": "1"}, {"size": "1"}, {"size": "384"}]}}}}}, {"name": "unknown_156", "op": "Const", "attr": {"value": {"tensor": {"dtype": "DT_FLOAT", "tensorShape": {}}}, "dtype": {"type": "DT_FLOAT"}}}, {"name": "ConstantFolding/PartitionedCall/model_326/tf.math.divide_35/truediv_recip", "op": "Const", "attr": {"dtype": {"type": "DT_FLOAT"}, "value": {"tensor": {"dtype": "DT_FLOAT", "tensorShape": {}}}}}, {"name": "PartitionedCall/model_326/tf.math.multiply_69/Mul/y", "op": "Const", "attr": {"value": {"tensor": {"dtype": "DT_FLOAT", "tensorShape": {"dim": [{"size": "1"}, {"size": "1"}, {"size": "384"}]}}}, "dtype": {"type": "DT_FLOAT"}}}, {"name": "PartitionedCall/model_326/tf.math.multiply_96/Mul/y", "op": "Const", "attr": {"value": {"tensor": {"dtype": "DT_FLOAT", "tensorShape": {"dim": [{"size": "1"}, {"size": "1"}, {"size": "384"}]}}}, "dtype": {"type": "DT_FLOAT"}}}, {"name": "PartitionedCall/model_326/tf.math.multiply_127/Mul/y", "op": "Const", "attr": {"value": {"tensor": {"dtype": "DT_FLOAT", "tensorShape": {"dim": [{"size": "1"}, {"size": "1"}, {"size": "384"}]}}}, "dtype": {"type": "DT_FLOAT"}}}, {"name": "PartitionedCall/model_326/tf.math.multiply_154/Mul/y", "op": "Const", "attr": {"value": {"tensor": {"dtype": "DT_FLOAT", "tensorShape": {"dim": [{"size": "1"}, {"size": "1"}, {"size": "384"}]}}}, "dtype": {"type": "DT_FLOAT"}}}, {"name": "PartitionedCall/model_326/tf.math.multiply_185/Mul/y", "op": "Const", "attr": {"value": {"tensor": {"dtype": "DT_FLOAT", "tensorShape": {"dim": [{"size": "1"}, {"size": "1"}, {"size": "384"}]}}}, "dtype": {"type": "DT_FLOAT"}}}, {"name": "PartitionedCall/model_326/tf.math.multiply_212/Mul/y", "op": "Const", "attr": {"value": {"tensor": {"dtype": "DT_FLOAT", "tensorShape": {"dim": [{"size": "1"}, {"size": "1"}, {"size": "384"}]}}}, "dtype": {"type": "DT_FLOAT"}}}, {"name": "PartitionedCall/model_326/tf.math.multiply_243/Mul/y", "op": "Const", "attr": {"value": {"tensor": {"dtype": "DT_FLOAT", "tensorShape": {"dim": [{"size": "1"}, {"size": "1"}, {"size": "384"}]}}}, "dtype": {"type": "DT_FLOAT"}}}, {"name": "PartitionedCall/model_326/tf.math.multiply_270/Mul/y", "op": "Const", "attr": {"dtype": {"type": "DT_FLOAT"}, "value": {"tensor": {"dtype": "DT_FLOAT", "tensorShape": {"dim": [{"size": "1"}, {"size": "1"}, {"size": "384"}]}}}}}, {"name": "PartitionedCall/model_326/tf.math.multiply_301/Mul/y", "op": "Const", "attr": {"value": {"tensor": {"dtype": "DT_FLOAT", "tensorShape": {"dim": [{"size": "1"}, {"size": "1"}, {"size": "384"}]}}}, "dtype": {"type": "DT_FLOAT"}}}, {"name": "PartitionedCall/model_326/tf.math.multiply_328/Mul/y", "op": "Const", "attr": {"value": {"tensor": {"dtype": "DT_FLOAT", "tensorShape": {"dim": [{"size": "1"}, {"size": "1"}, {"size": "384"}]}}}, "dtype": {"type": "DT_FLOAT"}}}, {"name": "PartitionedCall/model_326/tf.math.multiply_359/Mul/y", "op": "Const", "attr": {"value": {"tensor": {"dtype": "DT_FLOAT", "tensorShape": {"dim": [{"size": "1"}, {"size": "1"}, {"size": "384"}]}}}, "dtype": {"type": "DT_FLOAT"}}}, {"name": "PartitionedCall/model_326/tf.math.multiply_386/Mul/y", "op": "Const", "attr": {"value": {"tensor": {"dtype": "DT_FLOAT", "tensorShape": {"dim": [{"size": "1"}, {"size": "1"}, {"size": "384"}]}}}, "dtype": {"type": "DT_FLOAT"}}}, {"name": "PartitionedCall/model_326/tf.math.multiply_417/Mul/y", "op": "Const", "attr": {"value": {"tensor": {"dtype": "DT_FLOAT", "tensorShape": {"dim": [{"size": "1"}, {"size": "1"}, {"size": "384"}]}}}, "dtype": {"type": "DT_FLOAT"}}}, {"name": "PartitionedCall/model_326/tf.math.multiply_444/Mul/y", "op": "Const", "attr": {"value": {"tensor": {"dtype": "DT_FLOAT", "tensorShape": {"dim": [{"size": "1"}, {"size": "1"}, {"size": "384"}]}}}, "dtype": {"type": "DT_FLOAT"}}}, {"name": "PartitionedCall/model_326/tf.math.multiply_475/Mul/y", "op": "Const", "attr": {"value": {"tensor": {"dtype": "DT_FLOAT", "tensorShape": {"dim": [{"size": "1"}, {"size": "1"}, {"size": "384"}]}}}, "dtype": {"type": "DT_FLOAT"}}}, {"name": "PartitionedCall/model_326/tf.math.multiply_502/Mul/y", "op": "Const", "attr": {"value": {"tensor": {"dtype": "DT_FLOAT", "tensorShape": {"dim": [{"size": "1"}, {"size": "1"}, {"size": "384"}]}}}, "dtype": {"type": "DT_FLOAT"}}}, {"name": "unknown_209", "op": "Const", "attr": {"dtype": {"type": "DT_FLOAT"}, "value": {"tensor": {"dtype": "DT_FLOAT", "tensorShape": {"dim": [{"size": "4"}, {"size": "4"}, {"size": "48"}, {"size": "48"}]}}}}}, {"name": "PartitionedCall/model_326/tf.nn.conv2d_transpose/conv2d_transpose/input_sizes", "op": "Const", "attr": {"value": {"tensor": {"dtype": "DT_INT32", "tensorShape": {"dim": [{"size": "4"}]}}}, "dtype": {"type": "DT_INT32"}}}, {"name": "PartitionedCall/model_326/tf.math.add_134/Add/y", "op": "Const", "attr": {"value": {"tensor": {"dtype": "DT_FLOAT", "tensorShape": {"dim": [{"size": "48"}]}}}, "dtype": {"type": "DT_FLOAT"}}}, {"name": "unknown_220", "op": "Const", "attr": {"value": {"tensor": {"dtype": "DT_FLOAT", "tensorShape": {"dim": [{"size": "1"}, {"size": "1"}, {"size": "64"}, {"size": "64"}]}}}, "dtype": {"type": "DT_FLOAT"}}}, {"name": "unknown_218", "op": "Const", "attr": {"value": {"tensor": {"dtype": "DT_INT32", "tensorShape": {"dim": [{"size": "2"}]}}}, "dtype": {"type": "DT_INT32"}}}, {"name": "unknown_216", "op": "Const", "attr": {"value": {"tensor": {"dtype": "DT_FLOAT", "tensorShape": {"dim": [{"size": "64"}]}}}, "dtype": {"type": "DT_FLOAT"}}}, {"name": "unknown_214", "op": "Const", "attr": {"value": {"tensor": {"dtype": "DT_FLOAT", "tensorShape": {"dim": [{"size": "3"}, {"size": "3"}, {"size": "64"}, {"size": "64"}]}}}, "dtype": {"type": "DT_FLOAT"}}}, {"name": "unknown_212", "op": "Const", "attr": {"value": {"tensor": {"dtype": "DT_FLOAT", "tensorShape": {"dim": [{"size": "64"}]}}}, "dtype": {"type": "DT_FLOAT"}}}, {"name": "unknown_210", "op": "Const", "attr": {"value": {"tensor": {"dtype": "DT_FLOAT", "tensorShape": {"dim": [{"size": "3"}, {"size": "3"}, {"size": "64"}, {"size": "64"}]}}}, "dtype": {"type": "DT_FLOAT"}}}, {"name": "unknown_202", "op": "Const", "attr": {"value": {"tensor": {"dtype": "DT_FLOAT", "tensorShape": {"dim": [{"size": "3"}, {"size": "3"}, {"size": "64"}, {"size": "64"}]}}}, "dtype": {"type": "DT_FLOAT"}}}, {"name": "unknown_200", "op": "Const", "attr": {"value": {"tensor": {"dtype": "DT_FLOAT", "tensorShape": {"dim": [{"size": "64"}]}}}, "dtype": {"type": "DT_FLOAT"}}}, {"name": "unknown_196", "op": "Const", "attr": {"value": {"tensor": {"dtype": "DT_FLOAT", "tensorShape": {"dim": [{"size": "3"}, {"size": "3"}, {"size": "64"}, {"size": "64"}]}}}, "dtype": {"type": "DT_FLOAT"}}}, {"name": "unknown_193", "op": "Const", "attr": {"value": {"tensor": {"dtype": "DT_FLOAT", "tensorShape": {"dim": [{"size": "3"}, {"size": "3"}, {"size": "96"}, {"size": "64"}]}}}, "dtype": {"type": "DT_FLOAT"}}}, {"name": "unknown_190", "op": "Const", "attr": {"value": {"tensor": {"dtype": "DT_FLOAT", "tensorShape": {"dim": [{"size": "96"}]}}}, "dtype": {"type": "DT_FLOAT"}}}, {"name": "unknown_188", "op": "Const", "attr": {"value": {"tensor": {"dtype": "DT_FLOAT", "tensorShape": {"dim": [{"size": "1"}, {"size": "1"}, {"size": "384"}, {"size": "96"}]}}}, "dtype": {"type": "DT_FLOAT"}}}, {"name": "PartitionedCall/model_326/tf.math.multiply_583/Mul/y", "op": "Const", "attr": {"dtype": {"type": "DT_FLOAT"}, "value": {"tensor": {"dtype": "DT_FLOAT", "tensorShape": {"dim": [{"size": "1"}, {"size": "1"}, {"size": "384"}]}}}}}, {"name": "unknown_132", "op": "Const", "attr": {"value": {"tensor": {"dtype": "DT_FLOAT", "tensorShape": {"dim": [{"size": "1"}, {"size": "1"}, {"size": "384"}]}}}, "dtype": {"type": "DT_FLOAT"}}}, {"name": "unknown_131", "op": "Const", "attr": {"dtype": {"type": "DT_FLOAT"}, "value": {"tensor": {"dtype": "DT_FLOAT", "tensorShape": {"dim": [{"size": "1536"}, {"size": "384"}]}}}}}, {"name": "unknown_129", "op": "Const", "attr": {"value": {"tensor": {"dtype": "DT_FLOAT", "tensorShape": {"dim": [{"size": "1"}, {"size": "1"}, {"size": "1536"}]}}}, "dtype": {"type": "DT_FLOAT"}}}, {"name": "unknown_128", "op": "Const", "attr": {"value": {"tensor": {"dtype": "DT_FLOAT", "tensorShape": {"dim": [{"size": "384"}, {"size": "1536"}]}}}, "dtype": {"type": "DT_FLOAT"}}}, {"name": "unknown_127", "op": "Const", "attr": {"value": {"tensor": {"dtype": "DT_FLOAT", "tensorShape": {"dim": [{"size": "1"}, {"size": "1"}, {"size": "384"}]}}}, "dtype": {"type": "DT_FLOAT"}}}, {"name": "PartitionedCall/model_326/tf.math.multiply_552/Mul/y", "op": "Const", "attr": {"value": {"tensor": {"dtype": "DT_FLOAT", "tensorShape": {"dim": [{"size": "1"}, {"size": "1"}, {"size": "384"}]}}}, "dtype": {"type": "DT_FLOAT"}}}, {"name": "unknown_125", "op": "Const", "attr": {"value": {"tensor": {"dtype": "DT_FLOAT", "tensorShape": {"dim": [{"size": "1"}, {"size": "1"}, {"size": "384"}]}}}, "dtype": {"type": "DT_FLOAT"}}}, {"name": "unknown_124", "op": "Const", "attr": {"value": {"tensor": {"dtype": "DT_FLOAT", "tensorShape": {"dim": [{"size": "384"}, {"size": "384"}]}}}, "dtype": {"type": "DT_FLOAT"}}}, {"name": "unknown_123", "op": "Const", "attr": {"value": {"tensor": {"dtype": "DT_FLOAT", "tensorShape": {"dim": [{"size": "1"}, {"size": "1"}, {"size": "1152"}]}}}, "dtype": {"type": "DT_FLOAT"}}}, {"name": "unknown_122", "op": "Const", "attr": {"dtype": {"type": "DT_FLOAT"}, "value": {"tensor": {"dtype": "DT_FLOAT", "tensorShape": {"dim": [{"size": "384"}, {"size": "1152"}]}}}}}, {"name": "unknown_121", "op": "Const", "attr": {"value": {"tensor": {"dtype": "DT_FLOAT", "tensorShape": {"dim": [{"size": "1"}, {"size": "1"}, {"size": "384"}]}}}, "dtype": {"type": "DT_FLOAT"}}}, {"name": "PartitionedCall/model_326/tf.math.multiply_533/Mul/y", "op": "Const", "attr": {"value": {"tensor": {"dtype": "DT_FLOAT", "tensorShape": {"dim": [{"size": "1"}, {"size": "1"}, {"size": "384"}]}}}, "dtype": {"type": "DT_FLOAT"}}}, {"name": "PartitionedCall/model_326/tf.math.multiply_565/Mul/y", "op": "Const", "attr": {"value": {"tensor": {"dtype": "DT_FLOAT", "tensorShape": {"dim": [{"size": "1"}, {"size": "1"}, {"size": "384"}]}}}, "dtype": {"type": "DT_FLOAT"}}}, {"name": "unknown_191", "op": "Const", "attr": {"dtype": {"type": "DT_FLOAT"}, "value": {"tensor": {"dtype": "DT_FLOAT", "tensorShape": {"dim": [{"size": "2"}, {"size": "2"}, {"size": "96"}, {"size": "96"}]}}}}}, {"name": "PartitionedCall/model_326/tf.nn.conv2d_transpose_1/conv2d_transpose/input_sizes", "op": "Const", "attr": {"value": {"tensor": {"dtype": "DT_INT32", "tensorShape": {"dim": [{"size": "4"}]}}}, "dtype": {"type": "DT_INT32"}}}, {"name": "PartitionedCall/model_326/tf.math.add_155/Add/y", "op": "Const", "attr": {"value": {"tensor": {"dtype": "DT_FLOAT", "tensorShape": {"dim": [{"size": "96"}]}}}, "dtype": {"type": "DT_FLOAT"}}}, {"name": "unknown_205", "op": "Const", "attr": {"value": {"tensor": {"dtype": "DT_FLOAT", "tensorShape": {"dim": [{"size": "1"}, {"size": "1"}, {"size": "64"}, {"size": "64"}]}}}, "dtype": {"type": "DT_FLOAT"}}}, {"name": "unknown_203", "op": "Const", "attr": {"value": {"tensor": {"dtype": "DT_INT32", "tensorShape": {"dim": [{"size": "2"}]}}}, "dtype": {"type": "DT_INT32"}}}, {"name": "unknown_201", "op": "Const", "attr": {"value": {"tensor": {"dtype": "DT_FLOAT", "tensorShape": {"dim": [{"size": "64"}]}}}, "dtype": {"type": "DT_FLOAT"}}}, {"name": "unknown_197", "op": "Const", "attr": {"value": {"tensor": {"dtype": "DT_FLOAT", "tensorShape": {"dim": [{"size": "3"}, {"size": "3"}, {"size": "64"}, {"size": "64"}]}}}, "dtype": {"type": "DT_FLOAT"}}}, {"name": "unknown_194", "op": "Const", "attr": {"value": {"tensor": {"dtype": "DT_FLOAT", "tensorShape": {"dim": [{"size": "64"}]}}}, "dtype": {"type": "DT_FLOAT"}}}, {"name": "unknown_192", "op": "Const", "attr": {"dtype": {"type": "DT_FLOAT"}, "value": {"tensor": {"dtype": "DT_FLOAT", "tensorShape": {"dim": [{"size": "3"}, {"size": "3"}, {"size": "64"}, {"size": "64"}]}}}}}, {"name": "unknown_187", "op": "Const", "attr": {"value": {"tensor": {"dtype": "DT_FLOAT", "tensorShape": {"dim": [{"size": "1"}, {"size": "1"}, {"size": "64"}, {"size": "64"}]}}}, "dtype": {"type": "DT_FLOAT"}}}, {"name": "unknown_185", "op": "Const", "attr": {"value": {"tensor": {"dtype": "DT_INT32", "tensorShape": {"dim": [{"size": "2"}]}}}, "dtype": {"type": "DT_INT32"}}}, {"name": "unknown_183", "op": "Const", "attr": {"value": {"tensor": {"dtype": "DT_FLOAT", "tensorShape": {"dim": [{"size": "64"}]}}}, "dtype": {"type": "DT_FLOAT"}}}, {"name": "unknown_179", "op": "Const", "attr": {"value": {"tensor": {"dtype": "DT_FLOAT", "tensorShape": {"dim": [{"size": "3"}, {"size": "3"}, {"size": "64"}, {"size": "64"}]}}}, "dtype": {"type": "DT_FLOAT"}}}, {"name": "unknown_176", "op": "Const", "attr": {"dtype": {"type": "DT_FLOAT"}, "value": {"tensor": {"dtype": "DT_FLOAT", "tensorShape": {"dim": [{"size": "64"}]}}}}}, {"name": "unknown_174", "op": "Const", "attr": {"value": {"tensor": {"dtype": "DT_FLOAT", "tensorShape": {"dim": [{"size": "3"}, {"size": "3"}, {"size": "64"}, {"size": "64"}]}}}, "dtype": {"type": "DT_FLOAT"}}}, {"name": "unknown_171", "op": "Const", "attr": {"value": {"tensor": {"dtype": "DT_FLOAT", "tensorShape": {"dim": [{"size": "3"}, {"size": "3"}, {"size": "384"}, {"size": "64"}]}}}, "dtype": {"type": "DT_FLOAT"}}}, {"name": "unknown_170", "op": "Const", "attr": {"value": {"tensor": {"dtype": "DT_FLOAT", "tensorShape": {"dim": [{"size": "384"}]}}}, "dtype": {"type": "DT_FLOAT"}}}, {"name": "unknown_169", "op": "Const", "attr": {"value": {"tensor": {"dtype": "DT_FLOAT", "tensorShape": {"dim": [{"size": "3"}, {"size": "3"}, {"size": "384"}, {"size": "384"}]}}}, "dtype": {"type": "DT_FLOAT"}}}, {"name": "unknown_168", "op": "Const", "attr": {"value": {"tensor": {"dtype": "DT_INT32", "tensorShape": {"dim": [{"size": "4"}, {"size": "2"}]}}}, "dtype": {"type": "DT_INT32"}}}, {"name": "unknown_165", "op": "Const", "attr": {"value": {"tensor": {"dtype": "DT_FLOAT", "tensorShape": {"dim": [{"size": "384"}]}}}, "dtype": {"type": "DT_FLOAT"}}}, {"name": "unknown_163", "op": "Const", "attr": {"value": {"tensor": {"dtype": "DT_FLOAT", "tensorShape": {"dim": [{"size": "1"}, {"size": "1"}, {"size": "384"}, {"size": "384"}]}}}, "dtype": {"type": "DT_FLOAT"}}}, {"name": "PartitionedCall/model_326/tf.math.multiply_709/Mul/y", "op": "Const", "attr": {"value": {"tensor": {"dtype": "DT_FLOAT", "tensorShape": {"dim": [{"size": "1"}, {"size": "1"}, {"size": "384"}]}}}, "dtype": {"type": "DT_FLOAT"}}}, {"name": "unknown_158", "op": "Const", "attr": {"value": {"tensor": {"dtype": "DT_FLOAT", "tensorShape": {"dim": [{"size": "1"}, {"size": "1"}, {"size": "384"}]}}}, "dtype": {"type": "DT_FLOAT"}}}, {"name": "unknown_157", "op": "Const", "attr": {"value": {"tensor": {"dtype": "DT_FLOAT", "tensorShape": {"dim": [{"size": "1536"}, {"size": "384"}]}}}, "dtype": {"type": "DT_FLOAT"}}}, {"name": "unknown_155", "op": "Const", "attr": {"value": {"tensor": {"dtype": "DT_FLOAT", "tensorShape": {"dim": [{"size": "1"}, {"size": "1"}, {"size": "1536"}]}}}, "dtype": {"type": "DT_FLOAT"}}}, {"name": "unknown_154", "op": "Const", "attr": {"value": {"tensor": {"dtype": "DT_FLOAT", "tensorShape": {"dim": [{"size": "384"}, {"size": "1536"}]}}}, "dtype": {"type": "DT_FLOAT"}}}, {"name": "unknown_153", "op": "Const", "attr": {"value": {"tensor": {"dtype": "DT_FLOAT", "tensorShape": {"dim": [{"size": "1"}, {"size": "1"}, {"size": "384"}]}}}, "dtype": {"type": "DT_FLOAT"}}}, {"name": "PartitionedCall/model_326/tf.math.multiply_678/Mul/y", "op": "Const", "attr": {"value": {"tensor": {"dtype": "DT_FLOAT", "tensorShape": {"dim": [{"size": "1"}, {"size": "1"}, {"size": "384"}]}}}, "dtype": {"type": "DT_FLOAT"}}}, {"name": "unknown_151", "op": "Const", "attr": {"value": {"tensor": {"dtype": "DT_FLOAT", "tensorShape": {"dim": [{"size": "1"}, {"size": "1"}, {"size": "384"}]}}}, "dtype": {"type": "DT_FLOAT"}}}, {"name": "unknown_150", "op": "Const", "attr": {"value": {"tensor": {"dtype": "DT_FLOAT", "tensorShape": {"dim": [{"size": "384"}, {"size": "384"}]}}}, "dtype": {"type": "DT_FLOAT"}}}, {"name": "unknown_149", "op": "Const", "attr": {"value": {"tensor": {"dtype": "DT_FLOAT", "tensorShape": {"dim": [{"size": "1"}, {"size": "1"}, {"size": "1152"}]}}}, "dtype": {"type": "DT_FLOAT"}}}, {"name": "unknown_148", "op": "Const", "attr": {"value": {"tensor": {"dtype": "DT_FLOAT", "tensorShape": {"dim": [{"size": "384"}, {"size": "1152"}]}}}, "dtype": {"type": "DT_FLOAT"}}}, {"name": "unknown_147", "op": "Const", "attr": {"value": {"tensor": {"dtype": "DT_FLOAT", "tensorShape": {"dim": [{"size": "1"}, {"size": "1"}, {"size": "384"}]}}}, "dtype": {"type": "DT_FLOAT"}}}, {"name": "PartitionedCall/model_326/tf.math.multiply_659/Mul/y", "op": "Const", "attr": {"value": {"tensor": {"dtype": "DT_FLOAT", "tensorShape": {"dim": [{"size": "1"}, {"size": "1"}, {"size": "384"}]}}}, "dtype": {"type": "DT_FLOAT"}}}, {"name": "PartitionedCall/model_326/tf.math.multiply_646/Mul/y", "op": "Const", "attr": {"value": {"tensor": {"dtype": "DT_FLOAT", "tensorShape": {"dim": [{"size": "1"}, {"size": "1"}, {"size": "384"}]}}}, "dtype": {"type": "DT_FLOAT"}}}, {"name": "unknown_145", "op": "Const", "attr": {"value": {"tensor": {"dtype": "DT_FLOAT", "tensorShape": {"dim": [{"size": "1"}, {"size": "1"}, {"size": "384"}]}}}, "dtype": {"type": "DT_FLOAT"}}}, {"name": "unknown_144", "op": "Const", "attr": {"value": {"tensor": {"dtype": "DT_FLOAT", "tensorShape": {"dim": [{"size": "1536"}, {"size": "384"}]}}}, "dtype": {"type": "DT_FLOAT"}}}, {"name": "unknown_142", "op": "Const", "attr": {"value": {"tensor": {"dtype": "DT_FLOAT", "tensorShape": {"dim": [{"size": "1"}, {"size": "1"}, {"size": "1536"}]}}}, "dtype": {"type": "DT_FLOAT"}}}, {"name": "unknown_141", "op": "Const", "attr": {"value": {"tensor": {"dtype": "DT_FLOAT", "tensorShape": {"dim": [{"size": "384"}, {"size": "1536"}]}}}, "dtype": {"type": "DT_FLOAT"}}}, {"name": "unknown_140", "op": "Const", "attr": {"value": {"tensor": {"dtype": "DT_FLOAT", "tensorShape": {"dim": [{"size": "1"}, {"size": "1"}, {"size": "384"}]}}}, "dtype": {"type": "DT_FLOAT"}}}, {"name": "PartitionedCall/model_326/tf.math.multiply_615/Mul/y", "op": "Const", "attr": {"value": {"tensor": {"dtype": "DT_FLOAT", "tensorShape": {"dim": [{"size": "1"}, {"size": "1"}, {"size": "384"}]}}}, "dtype": {"type": "DT_FLOAT"}}}, {"name": "unknown_138", "op": "Const", "attr": {"value": {"tensor": {"dtype": "DT_FLOAT", "tensorShape": {"dim": [{"size": "1"}, {"size": "1"}, {"size": "384"}]}}}, "dtype": {"type": "DT_FLOAT"}}}, {"name": "unknown_137", "op": "Const", "attr": {"value": {"tensor": {"dtype": "DT_FLOAT", "tensorShape": {"dim": [{"size": "384"}, {"size": "384"}]}}}, "dtype": {"type": "DT_FLOAT"}}}, {"name": "unknown_136", "op": "Const", "attr": {"value": {"tensor": {"dtype": "DT_FLOAT", "tensorShape": {"dim": [{"size": "1"}, {"size": "1"}, {"size": "1152"}]}}}, "dtype": {"type": "DT_FLOAT"}}}, {"name": "unknown_135", "op": "Const", "attr": {"value": {"tensor": {"dtype": "DT_FLOAT", "tensorShape": {"dim": [{"size": "384"}, {"size": "1152"}]}}}, "dtype": {"type": "DT_FLOAT"}}}, {"name": "unknown_134", "op": "Const", "attr": {"value": {"tensor": {"dtype": "DT_FLOAT", "tensorShape": {"dim": [{"size": "1"}, {"size": "1"}, {"size": "384"}]}}}, "dtype": {"type": "DT_FLOAT"}}}, {"name": "PartitionedCall/model_326/tf.math.multiply_596/Mul/y", "op": "Const", "attr": {"value": {"tensor": {"dtype": "DT_FLOAT", "tensorShape": {"dim": [{"size": "1"}, {"size": "1"}, {"size": "384"}]}}}, "dtype": {"type": "DT_FLOAT"}}}, {"name": "PartitionedCall/model_326/tf.math.multiply_628/Mul/y", "op": "Const", "attr": {"dtype": {"type": "DT_FLOAT"}, "value": {"tensor": {"dtype": "DT_FLOAT", "tensorShape": {"dim": [{"size": "1"}, {"size": "1"}, {"size": "384"}]}}}}}, {"name": "PartitionedCall/model_326/tf.math.multiply_691/Mul/y", "op": "Const", "attr": {"value": {"tensor": {"dtype": "DT_FLOAT", "tensorShape": {"dim": [{"size": "1"}, {"size": "1"}, {"size": "384"}]}}}, "dtype": {"type": "DT_FLOAT"}}}, {"name": "unknown_184", "op": "Const", "attr": {"dtype": {"type": "DT_FLOAT"}, "value": {"tensor": {"dtype": "DT_FLOAT", "tensorShape": {"dim": [{"size": "3"}, {"size": "3"}, {"size": "64"}, {"size": "64"}]}}}}}, {"name": "unknown_182", "op": "Const", "attr": {"value": {"tensor": {"dtype": "DT_FLOAT", "tensorShape": {"dim": [{"size": "64"}]}}}, "dtype": {"type": "DT_FLOAT"}}}, {"name": "unknown_178", "op": "Const", "attr": {"value": {"tensor": {"dtype": "DT_FLOAT", "tensorShape": {"dim": [{"size": "3"}, {"size": "3"}, {"size": "64"}, {"size": "64"}]}}}, "dtype": {"type": "DT_FLOAT"}}}, {"name": "unknown_175", "op": "Const", "attr": {"value": {"tensor": {"dtype": "DT_FLOAT", "tensorShape": {"dim": [{"size": "3"}, {"size": "3"}, {"size": "192"}, {"size": "64"}]}}}, "dtype": {"type": "DT_FLOAT"}}}, {"name": "unknown_173", "op": "Const", "attr": {"value": {"tensor": {"dtype": "DT_FLOAT", "tensorShape": {"dim": [{"size": "192"}]}}}, "dtype": {"type": "DT_FLOAT"}}}, {"name": "unknown_172", "op": "Const", "attr": {"value": {"tensor": {"dtype": "DT_FLOAT", "tensorShape": {"dim": [{"size": "1"}, {"size": "1"}, {"size": "384"}, {"size": "192"}]}}}, "dtype": {"type": "DT_FLOAT"}}}, {"name": "PartitionedCall/model_326/tf.math.add_201/ArithmeticOptimizer/AddOpsRewrite_Leaf_0_Add", "op": "Const", "attr": {"dtype": {"type": "DT_FLOAT"}, "value": {"tensor": {"dtype": "DT_FLOAT", "tensorShape": {"dim": [{"size": "64"}]}}}}}, {"name": "PartitionedCall/model_326/tf.math.add_208/ArithmeticOptimizer/AddOpsRewrite_Leaf_0_Add", "op": "Const", "attr": {"value": {"tensor": {"dtype": "DT_FLOAT", "tensorShape": {"dim": [{"size": "64"}]}}}, "dtype": {"type": "DT_FLOAT"}}}, {"name": "PartitionedCall/model_326/tf.math.add_215/ArithmeticOptimizer/AddOpsRewrite_Leaf_0_Add", "op": "Const", "attr": {"value": {"tensor": {"dtype": "DT_FLOAT", "tensorShape": {"dim": [{"size": "64"}]}}}, "dtype": {"type": "DT_FLOAT"}}}, {"name": "PartitionedCall/model_326/tf.nn.convolution/convolution", "op": "Conv2D", "input": ["input", "unknown"], "attr": {"T": {"type": "DT_FLOAT"}, "data_format": {"s": "TkhXQw=="}, "strides": {"list": {"i": ["1", "14", "14", "1"]}}, "use_cudnn_on_gpu": {"b": true}, "explicit_paddings": {"list": {}}, "padding": {"s": "VkFMSUQ="}, "dilations": {"list": {"i": ["1", "1", "1", "1"]}}}}, {"name": "PartitionedCall/model_326/tf.math.add/Add", "op": "AddV2", "input": ["PartitionedCall/model_326/tf.nn.convolution/convolution", "unknown_0"], "attr": {"T": {"type": "DT_FLOAT"}}}, {"name": "PartitionedCall/model_326/tf.compat.v1.transpose_2/transpose", "op": "Transpose", "input": ["PartitionedCall/model_326/tf.math.add/Add", "PartitionedCall/model_326/tf.compat.v1.transpose_2/transpose/perm"], "attr": {"Tperm": {"type": "DT_INT32"}, "T": {"type": "DT_FLOAT"}}}, {"name": "PartitionedCall/model_326/tf.reshape_2/Reshape", "op": "Reshape", "input": ["PartitionedCall/model_326/tf.compat.v1.transpose_2/transpose", "PartitionedCall/model_326/tf.reshape_2/Reshape/shape"], "attr": {"Tshape": {"type": "DT_INT32"}, "T": {"type": "DT_FLOAT"}}}, {"name": "PartitionedCall/model_326/tf.compat.v1.transpose_5/transpose", "op": "Transpose", "input": ["PartitionedCall/model_326/tf.reshape_2/Reshape", "PartitionedCall/model_326/tf.compat.v1.transpose_303/transpose/perm"], "attr": {"T": {"type": "DT_FLOAT"}, "Tperm": {"type": "DT_INT32"}}}, {"name": "PartitionedCall/model_326/tf.concat_2/concat", "op": "ConcatV2", "input": ["unknown_1", "PartitionedCall/model_326/tf.compat.v1.transpose_5/transpose", "PartitionedCall/model_326/tf.compat.v1.gather_34/GatherV2/indices"], "attr": {"N": {"i": "2"}, "Tidx": {"type": "DT_INT32"}, "T": {"type": "DT_FLOAT"}}}, {"name": "PartitionedCall/model_326/tf.math.add_1/Add", "op": "AddV2", "input": ["PartitionedCall/model_326/tf.concat_2/concat", "unknown_2"], "attr": {"T": {"type": "DT_FLOAT"}}}, {"name": "PartitionedCall/model_326/tf.math.reduce_mean_1/Mean", "op": "Mean", "input": ["PartitionedCall/model_326/tf.math.add_1/Add", "PartitionedCall/model_326/tf.math.reduce_mean_93/Mean/reduction_indices"], "attr": {"T": {"type": "DT_FLOAT"}, "keep_dims": {"b": true}, "Tidx": {"type": "DT_INT32"}}}, {"name": "PartitionedCall/model_326/tf.math.subtract/Sub", "op": "Sub", "input": ["PartitionedCall/model_326/tf.math.add_1/Add", "PartitionedCall/model_326/tf.math.reduce_mean_1/Mean"], "attr": {"T": {"type": "DT_FLOAT"}}}, {"name": "PartitionedCall/model_326/tf.math.multiply_5/ArithmeticOptimizer/ReplaceMulWithSquare_Mul", "op": "Square", "input": ["PartitionedCall/model_326/tf.math.subtract/Sub"], "attr": {"T": {"type": "DT_FLOAT"}}}, {"name": "PartitionedCall/model_326/tf.math.reduce_mean_3/Mean", "op": "Mean", "input": ["PartitionedCall/model_326/tf.math.multiply_5/ArithmeticOptimizer/ReplaceMulWithSquare_Mul", "PartitionedCall/model_326/tf.math.reduce_mean_93/Mean/reduction_indices"], "attr": {"T": {"type": "DT_FLOAT"}, "keep_dims": {"b": true}, "Tidx": {"type": "DT_INT32"}}}, {"name": "PartitionedCall/model_326/tf.math.add_3/Add", "op": "AddV2", "input": ["PartitionedCall/model_326/tf.math.reduce_mean_3/Mean", "unknown_152"], "attr": {"T": {"type": "DT_FLOAT"}}}, {"name": "PartitionedCall/model_326/tf.math.sqrt/Sqrt", "op": "Rsqrt", "input": ["PartitionedCall/model_326/tf.math.add_3/Add"], "attr": {"T": {"type": "DT_FLOAT"}}}, {"name": "PartitionedCall/model_326/tf.math.divide/truediv", "op": "Mul", "input": ["PartitionedCall/model_326/tf.math.multiply_11/Mul/y", "PartitionedCall/model_326/tf.math.sqrt/Sqrt"], "attr": {"_grappler:ArithmeticOptimizer:MinimizeBroadcasts": {"b": true}, "T": {"type": "DT_FLOAT"}}}, {"name": "PartitionedCall/model_326/tf.math.multiply_11/Mul", "op": "Mul", "input": ["PartitionedCall/model_326/tf.math.divide/truediv", "PartitionedCall/model_326/tf.math.subtract/Sub"], "attr": {"_grappler:ArithmeticOptimizer:MinimizeBroadcasts": {"b": true}, "T": {"type": "DT_FLOAT"}}}, {"name": "PartitionedCall/model_326/tf.math.add_4/Add", "op": "AddV2", "input": ["PartitionedCall/model_326/tf.math.multiply_11/Mul", "unknown_4"], "attr": {"T": {"type": "DT_FLOAT"}}}, {"name": "PartitionedCall/model_326/tf.linalg.matmul_1/MatMul", "op": "BatchMatMulV2", "input": ["PartitionedCall/model_326/tf.math.add_4/Add", "unknown_5"], "attr": {"T": {"type": "DT_FLOAT"}, "adj_x": {"b": false}, "adj_y": {"b": false}}}, {"name": "PartitionedCall/model_326/tf.math.add_5/Add", "op": "AddV2", "input": ["PartitionedCall/model_326/tf.linalg.matmul_1/MatMul", "unknown_6"], "attr": {"T": {"type": "DT_FLOAT"}}}, {"name": "PartitionedCall/model_326/tf.reshape_5/Reshape", "op": "Reshape", "input": ["PartitionedCall/model_326/tf.math.add_5/Add", "PartitionedCall/model_326/tf.reshape_77/Reshape/shape"], "attr": {"T": {"type": "DT_FLOAT"}, "Tshape": {"type": "DT_INT32"}}}, {"name": "PartitionedCall/model_326/tf.compat.v1.transpose_13/transpose", "op": "Transpose", "input": ["PartitionedCall/model_326/tf.reshape_5/Reshape", "PartitionedCall/model_326/tf.compat.v1.transpose_285/transpose/perm"], "attr": {"Tperm": {"type": "DT_INT32"}, "T": {"type": "DT_FLOAT"}}}, {"name": "PartitionedCall/model_326/tf.compat.v1.gather_2/GatherV2", "op": "GatherV2", "input": ["PartitionedCall/model_326/tf.compat.v1.transpose_13/transpose", "PartitionedCall/model_326/tf.compat.v1.gather_35/GatherV2/indices", "PartitionedCall/model_326/tf.compat.v1.gather_33/GatherV2/indices"], "attr": {"Taxis": {"type": "DT_INT32"}, "batch_dims": {"i": "0"}, "Tindices": {"type": "DT_INT32"}, "Tparams": {"type": "DT_FLOAT"}}}, {"name": "PartitionedCall/model_326/tf.compat.v1.gather_1/GatherV2", "op": "GatherV2", "input": ["PartitionedCall/model_326/tf.compat.v1.transpose_13/transpose", "PartitionedCall/model_326/tf.compat.v1.gather_34/GatherV2/indices", "PartitionedCall/model_326/tf.compat.v1.gather_33/GatherV2/indices"], "attr": {"Tparams": {"type": "DT_FLOAT"}, "Taxis": {"type": "DT_INT32"}, "batch_dims": {"i": "0"}, "Tindices": {"type": "DT_INT32"}}}, {"name": "PartitionedCall/model_326/tf.compat.v1.gather/GatherV2", "op": "GatherV2", "input": ["PartitionedCall/model_326/tf.compat.v1.transpose_13/transpose", "PartitionedCall/model_326/tf.compat.v1.gather_33/GatherV2/indices", "PartitionedCall/model_326/tf.compat.v1.gather_33/GatherV2/indices"], "attr": {"Taxis": {"type": "DT_INT32"}, "batch_dims": {"i": "0"}, "Tindices": {"type": "DT_INT32"}, "Tparams": {"type": "DT_FLOAT"}}}, {"name": "PartitionedCall/model_326/tf.compat.v1.transpose_14/transpose", "op": "Transpose", "input": ["PartitionedCall/model_326/tf.compat.v1.gather_1/GatherV2", "PartitionedCall/model_326/tf.compat.v1.transpose_287/transpose/perm"], "attr": {"Tperm": {"type": "DT_INT32"}, "T": {"type": "DT_FLOAT"}}}, {"name": "PartitionedCall/model_326/tf.math.multiply_20/Mul", "op": "Mul", "input": ["PartitionedCall/model_326/tf.compat.v1.gather/GatherV2", "PartitionedCall/model_326/tf.math.multiply_671/Mul/y"], "attr": {"T": {"type": "DT_FLOAT"}}}, {"name": "PartitionedCall/model_326/tf.linalg.matmul_3/MatMul", "op": "BatchMatMulV2", "input": ["PartitionedCall/model_326/tf.math.multiply_20/Mul", "PartitionedCall/model_326/tf.compat.v1.transpose_14/transpose"], "attr": {"adj_y": {"b": false}, "T": {"type": "DT_FLOAT"}, "adj_x": {"b": false}}}, {"name": "PartitionedCall/model_326/tf.nn.softmax_1/wa/blocks.0/attn/Softmax", "op": "Softmax", "input": ["PartitionedCall/model_326/tf.linalg.matmul_3/MatMul"], "attr": {"T": {"type": "DT_FLOAT"}}}, {"name": "PartitionedCall/model_326/tf.linalg.matmul_5/MatMul", "op": "BatchMatMulV2", "input": ["PartitionedCall/model_326/tf.nn.softmax_1/wa/blocks.0/attn/Softmax", "PartitionedCall/model_326/tf.compat.v1.gather_2/GatherV2"], "attr": {"T": {"type": "DT_FLOAT"}, "adj_x": {"b": false}, "adj_y": {"b": false}}}, {"name": "PartitionedCall/model_326/tf.compat.v1.transpose_15/transpose", "op": "Transpose", "input": ["PartitionedCall/model_326/tf.linalg.matmul_5/MatMul", "PartitionedCall/model_326/tf.compat.v1.transpose_288/transpose/perm"], "attr": {"Tperm": {"type": "DT_INT32"}, "T": {"type": "DT_FLOAT"}}}, {"name": "PartitionedCall/model_326/tf.reshape_8/Reshape", "op": "Reshape", "input": ["PartitionedCall/model_326/tf.compat.v1.transpose_15/transpose", "PartitionedCall/model_326/tf.reshape_83/Reshape/shape"], "attr": {"T": {"type": "DT_FLOAT"}, "Tshape": {"type": "DT_INT32"}}}, {"name": "PartitionedCall/model_326/tf.linalg.matmul_7/MatMul", "op": "BatchMatMulV2", "input": ["PartitionedCall/model_326/tf.reshape_8/Reshape", "unknown_7"], "attr": {"T": {"type": "DT_FLOAT"}, "adj_x": {"b": false}, "adj_y": {"b": false}}}, {"name": "PartitionedCall/model_326/tf.math.add_6/Add", "op": "AddV2", "input": ["PartitionedCall/model_326/tf.linalg.matmul_7/MatMul", "unknown_8"], "attr": {"T": {"type": "DT_FLOAT"}}}, {"name": "PartitionedCall/model_326/tf.math.multiply_25/Mul", "op": "Mul", "input": ["PartitionedCall/model_326/tf.math.add_6/Add", "PartitionedCall/model_326/tf.math.multiply_25/Mul/y"], "attr": {"T": {"type": "DT_FLOAT"}}}, {"name": "PartitionedCall/model_326/tf.math.add_7/Add", "op": "AddV2", "input": ["PartitionedCall/model_326/tf.math.add_1/Add", "PartitionedCall/model_326/tf.math.multiply_25/Mul"], "attr": {"T": {"type": "DT_FLOAT"}}}, {"name": "PartitionedCall/model_326/tf.math.reduce_mean_5/Mean", "op": "Mean", "input": ["PartitionedCall/model_326/tf.math.add_7/Add", "PartitionedCall/model_326/tf.math.reduce_mean_93/Mean/reduction_indices"], "attr": {"T": {"type": "DT_FLOAT"}, "keep_dims": {"b": true}, "Tidx": {"type": "DT_INT32"}}}, {"name": "PartitionedCall/model_326/tf.math.subtract_1/Sub", "op": "Sub", "input": ["PartitionedCall/model_326/tf.math.add_7/Add", "PartitionedCall/model_326/tf.math.reduce_mean_5/Mean"], "attr": {"T": {"type": "DT_FLOAT"}}}, {"name": "PartitionedCall/model_326/tf.math.multiply_32/ArithmeticOptimizer/ReplaceMulWithSquare_Mul", "op": "Square", "input": ["PartitionedCall/model_326/tf.math.subtract_1/Sub"], "attr": {"T": {"type": "DT_FLOAT"}}}, {"name": "PartitionedCall/model_326/tf.math.reduce_mean_7/Mean", "op": "Mean", "input": ["PartitionedCall/model_326/tf.math.multiply_32/ArithmeticOptimizer/ReplaceMulWithSquare_Mul", "PartitionedCall/model_326/tf.math.reduce_mean_93/Mean/reduction_indices"], "attr": {"keep_dims": {"b": true}, "Tidx": {"type": "DT_INT32"}, "T": {"type": "DT_FLOAT"}}}, {"name": "PartitionedCall/model_326/tf.math.add_9/Add", "op": "AddV2", "input": ["PartitionedCall/model_326/tf.math.reduce_mean_7/Mean", "unknown_152"], "attr": {"T": {"type": "DT_FLOAT"}}}, {"name": "PartitionedCall/model_326/tf.math.sqrt_1/Sqrt", "op": "Rsqrt", "input": ["PartitionedCall/model_326/tf.math.add_9/Add"], "attr": {"T": {"type": "DT_FLOAT"}}}, {"name": "PartitionedCall/model_326/tf.math.divide_1/truediv", "op": "Mul", "input": ["PartitionedCall/model_326/tf.math.multiply_38/Mul/y", "PartitionedCall/model_326/tf.math.sqrt_1/Sqrt"], "attr": {"T": {"type": "DT_FLOAT"}, "_grappler:ArithmeticOptimizer:MinimizeBroadcasts": {"b": true}}}, {"name": "PartitionedCall/model_326/tf.math.multiply_38/Mul", "op": "Mul", "input": ["PartitionedCall/model_326/tf.math.divide_1/truediv", "PartitionedCall/model_326/tf.math.subtract_1/Sub"], "attr": {"T": {"type": "DT_FLOAT"}, "_grappler:ArithmeticOptimizer:MinimizeBroadcasts": {"b": true}}}, {"name": "PartitionedCall/model_326/tf.math.add_10/Add", "op": "AddV2", "input": ["PartitionedCall/model_326/tf.math.multiply_38/Mul", "unknown_10"], "attr": {"T": {"type": "DT_FLOAT"}}}, {"name": "PartitionedCall/model_326/tf.linalg.matmul_9/MatMul", "op": "BatchMatMulV2", "input": ["PartitionedCall/model_326/tf.math.add_10/Add", "unknown_11"], "attr": {"adj_x": {"b": false}, "adj_y": {"b": false}, "T": {"type": "DT_FLOAT"}}}, {"name": "PartitionedCall/model_326/tf.math.add_11/Add", "op": "AddV2", "input": ["PartitionedCall/model_326/tf.linalg.matmul_9/MatMul", "unknown_12"], "attr": {"T": {"type": "DT_FLOAT"}}}, {"name": "PartitionedCall/model_326/tf.math.multiply_48/Mul", "op": "Mul", "input": ["PartitionedCall/model_326/tf.math.add_11/Add", "PartitionedCall/model_326/tf.math.multiply_704/Mul/y"], "attr": {"T": {"type": "DT_FLOAT"}, "_grappler:ArithmeticOptimizer:MinimizeBroadcasts": {"b": true}}}, {"name": "PartitionedCall/model_326/tf.math.divide_2/truediv", "op": "Mul", "input": ["ConstantFolding/PartitionedCall/model_326/tf.math.divide_35/truediv_recip", "PartitionedCall/model_326/tf.math.add_11/Add"], "attr": {"T": {"type": "DT_FLOAT"}}}, {"name": "PartitionedCall/model_326/tf.math.erf/Erf", "op": "Erf", "input": ["PartitionedCall/model_326/tf.math.divide_2/truediv"], "attr": {"T": {"type": "DT_FLOAT"}}}, {"name": "PartitionedCall/model_326/tf.math.add_13/Add", "op": "AddV2", "input": ["PartitionedCall/model_326/tf.math.erf/Erf", "unknown_156"], "attr": {"T": {"type": "DT_FLOAT"}}}, {"name": "PartitionedCall/model_326/tf.math.multiply_51/Mul", "op": "Mul", "input": ["PartitionedCall/model_326/tf.math.add_13/Add", "PartitionedCall/model_326/tf.math.multiply_48/Mul"], "attr": {"T": {"type": "DT_FLOAT"}, "_grappler:ArithmeticOptimizer:MinimizeBroadcasts": {"b": true}}}, {"name": "PartitionedCall/model_326/tf.linalg.matmul_11/MatMul", "op": "BatchMatMulV2", "input": ["PartitionedCall/model_326/tf.math.multiply_51/Mul", "unknown_14"], "attr": {"adj_x": {"b": false}, "adj_y": {"b": false}, "T": {"type": "DT_FLOAT"}}}, {"name": "PartitionedCall/model_326/tf.math.add_14/Add", "op": "AddV2", "input": ["PartitionedCall/model_326/tf.linalg.matmul_11/MatMul", "unknown_15"], "attr": {"T": {"type": "DT_FLOAT"}}}, {"name": "PartitionedCall/model_326/tf.math.multiply_56/Mul", "op": "Mul", "input": ["PartitionedCall/model_326/tf.math.add_14/Add", "PartitionedCall/model_326/tf.math.multiply_56/Mul/y"], "attr": {"T": {"type": "DT_FLOAT"}}}, {"name": "PartitionedCall/model_326/tf.math.add_15/Add", "op": "AddV2", "input": ["PartitionedCall/model_326/tf.math.add_7/Add", "PartitionedCall/model_326/tf.math.multiply_56/Mul"], "attr": {"T": {"type": "DT_FLOAT"}}}, {"name": "PartitionedCall/model_326/tf.math.reduce_mean_9/Mean", "op": "Mean", "input": ["PartitionedCall/model_326/tf.math.add_15/Add", "PartitionedCall/model_326/tf.math.reduce_mean_93/Mean/reduction_indices"], "attr": {"keep_dims": {"b": true}, "Tidx": {"type": "DT_INT32"}, "T": {"type": "DT_FLOAT"}}}, {"name": "PartitionedCall/model_326/tf.math.subtract_2/Sub", "op": "Sub", "input": ["PartitionedCall/model_326/tf.math.add_15/Add", "PartitionedCall/model_326/tf.math.reduce_mean_9/Mean"], "attr": {"T": {"type": "DT_FLOAT"}}}, {"name": "PartitionedCall/model_326/tf.math.multiply_63/ArithmeticOptimizer/ReplaceMulWithSquare_Mul", "op": "Square", "input": ["PartitionedCall/model_326/tf.math.subtract_2/Sub"], "attr": {"T": {"type": "DT_FLOAT"}}}, {"name": "PartitionedCall/model_326/tf.math.reduce_mean_11/Mean", "op": "Mean", "input": ["PartitionedCall/model_326/tf.math.multiply_63/ArithmeticOptimizer/ReplaceMulWithSquare_Mul", "PartitionedCall/model_326/tf.math.reduce_mean_93/Mean/reduction_indices"], "attr": {"keep_dims": {"b": true}, "Tidx": {"type": "DT_INT32"}, "T": {"type": "DT_FLOAT"}}}, {"name": "PartitionedCall/model_326/tf.math.add_17/Add", "op": "AddV2", "input": ["PartitionedCall/model_326/tf.math.reduce_mean_11/Mean", "unknown_152"], "attr": {"T": {"type": "DT_FLOAT"}}}, {"name": "PartitionedCall/model_326/tf.math.sqrt_2/Sqrt", "op": "Rsqrt", "input": ["PartitionedCall/model_326/tf.math.add_17/Add"], "attr": {"T": {"type": "DT_FLOAT"}}}, {"name": "PartitionedCall/model_326/tf.math.divide_3/truediv", "op": "Mul", "input": ["PartitionedCall/model_326/tf.math.multiply_69/Mul/y", "PartitionedCall/model_326/tf.math.sqrt_2/Sqrt"], "attr": {"_grappler:ArithmeticOptimizer:MinimizeBroadcasts": {"b": true}, "T": {"type": "DT_FLOAT"}}}, {"name": "PartitionedCall/model_326/tf.math.multiply_69/Mul", "op": "Mul", "input": ["PartitionedCall/model_326/tf.math.divide_3/truediv", "PartitionedCall/model_326/tf.math.subtract_2/Sub"], "attr": {"_grappler:ArithmeticOptimizer:MinimizeBroadcasts": {"b": true}, "T": {"type": "DT_FLOAT"}}}, {"name": "PartitionedCall/model_326/tf.math.add_18/Add", "op": "AddV2", "input": ["PartitionedCall/model_326/tf.math.multiply_69/Mul", "unknown_17"], "attr": {"T": {"type": "DT_FLOAT"}}}, {"name": "PartitionedCall/model_326/tf.linalg.matmul_13/MatMul", "op": "BatchMatMulV2", "input": ["PartitionedCall/model_326/tf.math.add_18/Add", "unknown_18"], "attr": {"adj_x": {"b": false}, "adj_y": {"b": false}, "T": {"type": "DT_FLOAT"}}}, {"name": "PartitionedCall/model_326/tf.math.add_19/Add", "op": "AddV2", "input": ["PartitionedCall/model_326/tf.linalg.matmul_13/MatMul", "unknown_19"], "attr": {"T": {"type": "DT_FLOAT"}}}, {"name": "PartitionedCall/model_326/tf.reshape_11/Reshape", "op": "Reshape", "input": ["PartitionedCall/model_326/tf.math.add_19/Add", "PartitionedCall/model_326/tf.reshape_77/Reshape/shape"], "attr": {"T": {"type": "DT_FLOAT"}, "Tshape": {"type": "DT_INT32"}}}, {"name": "PartitionedCall/model_326/tf.compat.v1.transpose_36/transpose", "op": "Transpose", "input": ["PartitionedCall/model_326/tf.reshape_11/Reshape", "PartitionedCall/model_326/tf.compat.v1.transpose_285/transpose/perm"], "attr": {"Tperm": {"type": "DT_INT32"}, "T": {"type": "DT_FLOAT"}}}, {"name": "PartitionedCall/model_326/tf.compat.v1.gather_5/GatherV2", "op": "GatherV2", "input": ["PartitionedCall/model_326/tf.compat.v1.transpose_36/transpose", "PartitionedCall/model_326/tf.compat.v1.gather_35/GatherV2/indices", "PartitionedCall/model_326/tf.compat.v1.gather_33/GatherV2/indices"], "attr": {"Taxis": {"type": "DT_INT32"}, "batch_dims": {"i": "0"}, "Tindices": {"type": "DT_INT32"}, "Tparams": {"type": "DT_FLOAT"}}}, {"name": "PartitionedCall/model_326/tf.compat.v1.gather_4/GatherV2", "op": "GatherV2", "input": ["PartitionedCall/model_326/tf.compat.v1.transpose_36/transpose", "PartitionedCall/model_326/tf.compat.v1.gather_34/GatherV2/indices", "PartitionedCall/model_326/tf.compat.v1.gather_33/GatherV2/indices"], "attr": {"Taxis": {"type": "DT_INT32"}, "batch_dims": {"i": "0"}, "Tindices": {"type": "DT_INT32"}, "Tparams": {"type": "DT_FLOAT"}}}, {"name": "PartitionedCall/model_326/tf.compat.v1.gather_3/GatherV2", "op": "GatherV2", "input": ["PartitionedCall/model_326/tf.compat.v1.transpose_36/transpose", "PartitionedCall/model_326/tf.compat.v1.gather_33/GatherV2/indices", "PartitionedCall/model_326/tf.compat.v1.gather_33/GatherV2/indices"], "attr": {"Tparams": {"type": "DT_FLOAT"}, "Taxis": {"type": "DT_INT32"}, "batch_dims": {"i": "0"}, "Tindices": {"type": "DT_INT32"}}}, {"name": "PartitionedCall/model_326/tf.compat.v1.transpose_37/transpose", "op": "Transpose", "input": ["PartitionedCall/model_326/tf.compat.v1.gather_4/GatherV2", "PartitionedCall/model_326/tf.compat.v1.transpose_287/transpose/perm"], "attr": {"Tperm": {"type": "DT_INT32"}, "T": {"type": "DT_FLOAT"}}}, {"name": "PartitionedCall/model_326/tf.math.multiply_78/Mul", "op": "Mul", "input": ["PartitionedCall/model_326/tf.compat.v1.gather_3/GatherV2", "PartitionedCall/model_326/tf.math.multiply_671/Mul/y"], "attr": {"T": {"type": "DT_FLOAT"}}}, {"name": "PartitionedCall/model_326/tf.linalg.matmul_15/MatMul", "op": "BatchMatMulV2", "input": ["PartitionedCall/model_326/tf.math.multiply_78/Mul", "PartitionedCall/model_326/tf.compat.v1.transpose_37/transpose"], "attr": {"adj_x": {"b": false}, "adj_y": {"b": false}, "T": {"type": "DT_FLOAT"}}}, {"name": "PartitionedCall/model_326/tf.nn.softmax_3/wa/blocks.1/attn/Softmax", "op": "Softmax", "input": ["PartitionedCall/model_326/tf.linalg.matmul_15/MatMul"], "attr": {"T": {"type": "DT_FLOAT"}}}, {"name": "PartitionedCall/model_326/tf.linalg.matmul_17/MatMul", "op": "BatchMatMulV2", "input": ["PartitionedCall/model_326/tf.nn.softmax_3/wa/blocks.1/attn/Softmax", "PartitionedCall/model_326/tf.compat.v1.gather_5/GatherV2"], "attr": {"adj_x": {"b": false}, "adj_y": {"b": false}, "T": {"type": "DT_FLOAT"}}}, {"name": "PartitionedCall/model_326/tf.compat.v1.transpose_38/transpose", "op": "Transpose", "input": ["PartitionedCall/model_326/tf.linalg.matmul_17/MatMul", "PartitionedCall/model_326/tf.compat.v1.transpose_288/transpose/perm"], "attr": {"T": {"type": "DT_FLOAT"}, "Tperm": {"type": "DT_INT32"}}}, {"name": "PartitionedCall/model_326/tf.reshape_14/Reshape", "op": "Reshape", "input": ["PartitionedCall/model_326/tf.compat.v1.transpose_38/transpose", "PartitionedCall/model_326/tf.reshape_83/Reshape/shape"], "attr": {"T": {"type": "DT_FLOAT"}, "Tshape": {"type": "DT_INT32"}}}, {"name": "PartitionedCall/model_326/tf.linalg.matmul_19/MatMul", "op": "BatchMatMulV2", "input": ["PartitionedCall/model_326/tf.reshape_14/Reshape", "unknown_20"], "attr": {"adj_x": {"b": false}, "adj_y": {"b": false}, "T": {"type": "DT_FLOAT"}}}, {"name": "PartitionedCall/model_326/tf.math.add_20/Add", "op": "AddV2", "input": ["PartitionedCall/model_326/tf.linalg.matmul_19/MatMul", "unknown_21"], "attr": {"T": {"type": "DT_FLOAT"}}}, {"name": "PartitionedCall/model_326/tf.math.multiply_83/Mul", "op": "Mul", "input": ["PartitionedCall/model_326/tf.math.add_20/Add", "PartitionedCall/model_326/tf.math.multiply_83/Mul/y"], "attr": {"T": {"type": "DT_FLOAT"}}}, {"name": "PartitionedCall/model_326/tf.math.add_21/Add", "op": "AddV2", "input": ["PartitionedCall/model_326/tf.math.add_15/Add", "PartitionedCall/model_326/tf.math.multiply_83/Mul"], "attr": {"T": {"type": "DT_FLOAT"}}}, {"name": "PartitionedCall/model_326/tf.math.reduce_mean_13/Mean", "op": "Mean", "input": ["PartitionedCall/model_326/tf.math.add_21/Add", "PartitionedCall/model_326/tf.math.reduce_mean_93/Mean/reduction_indices"], "attr": {"keep_dims": {"b": true}, "Tidx": {"type": "DT_INT32"}, "T": {"type": "DT_FLOAT"}}}, {"name": "PartitionedCall/model_326/tf.math.subtract_3/Sub", "op": "Sub", "input": ["PartitionedCall/model_326/tf.math.add_21/Add", "PartitionedCall/model_326/tf.math.reduce_mean_13/Mean"], "attr": {"T": {"type": "DT_FLOAT"}}}, {"name": "PartitionedCall/model_326/tf.math.multiply_90/ArithmeticOptimizer/ReplaceMulWithSquare_Mul", "op": "Square", "input": ["PartitionedCall/model_326/tf.math.subtract_3/Sub"], "attr": {"T": {"type": "DT_FLOAT"}}}, {"name": "PartitionedCall/model_326/tf.math.reduce_mean_15/Mean", "op": "Mean", "input": ["PartitionedCall/model_326/tf.math.multiply_90/ArithmeticOptimizer/ReplaceMulWithSquare_Mul", "PartitionedCall/model_326/tf.math.reduce_mean_93/Mean/reduction_indices"], "attr": {"T": {"type": "DT_FLOAT"}, "keep_dims": {"b": true}, "Tidx": {"type": "DT_INT32"}}}, {"name": "PartitionedCall/model_326/tf.math.add_23/Add", "op": "AddV2", "input": ["PartitionedCall/model_326/tf.math.reduce_mean_15/Mean", "unknown_152"], "attr": {"T": {"type": "DT_FLOAT"}}}, {"name": "PartitionedCall/model_326/tf.math.sqrt_3/Sqrt", "op": "Rsqrt", "input": ["PartitionedCall/model_326/tf.math.add_23/Add"], "attr": {"T": {"type": "DT_FLOAT"}}}, {"name": "PartitionedCall/model_326/tf.math.divide_4/truediv", "op": "Mul", "input": ["PartitionedCall/model_326/tf.math.multiply_96/Mul/y", "PartitionedCall/model_326/tf.math.sqrt_3/Sqrt"], "attr": {"_grappler:ArithmeticOptimizer:MinimizeBroadcasts": {"b": true}, "T": {"type": "DT_FLOAT"}}}, {"name": "PartitionedCall/model_326/tf.math.multiply_96/Mul", "op": "Mul", "input": ["PartitionedCall/model_326/tf.math.divide_4/truediv", "PartitionedCall/model_326/tf.math.subtract_3/Sub"], "attr": {"_grappler:ArithmeticOptimizer:MinimizeBroadcasts": {"b": true}, "T": {"type": "DT_FLOAT"}}}, {"name": "PartitionedCall/model_326/tf.math.add_24/Add", "op": "AddV2", "input": ["PartitionedCall/model_326/tf.math.multiply_96/Mul", "unknown_23"], "attr": {"T": {"type": "DT_FLOAT"}}}, {"name": "PartitionedCall/model_326/tf.linalg.matmul_21/MatMul", "op": "BatchMatMulV2", "input": ["PartitionedCall/model_326/tf.math.add_24/Add", "unknown_24"], "attr": {"adj_x": {"b": false}, "adj_y": {"b": false}, "T": {"type": "DT_FLOAT"}}}, {"name": "PartitionedCall/model_326/tf.math.add_25/Add", "op": "AddV2", "input": ["PartitionedCall/model_326/tf.linalg.matmul_21/MatMul", "unknown_25"], "attr": {"T": {"type": "DT_FLOAT"}}}, {"name": "PartitionedCall/model_326/tf.math.multiply_106/Mul", "op": "Mul", "input": ["PartitionedCall/model_326/tf.math.add_25/Add", "PartitionedCall/model_326/tf.math.multiply_704/Mul/y"], "attr": {"T": {"type": "DT_FLOAT"}, "_grappler:ArithmeticOptimizer:MinimizeBroadcasts": {"b": true}}}, {"name": "PartitionedCall/model_326/tf.math.divide_5/truediv", "op": "Mul", "input": ["ConstantFolding/PartitionedCall/model_326/tf.math.divide_35/truediv_recip", "PartitionedCall/model_326/tf.math.add_25/Add"], "attr": {"T": {"type": "DT_FLOAT"}}}, {"name": "PartitionedCall/model_326/tf.math.erf_1/Erf", "op": "Erf", "input": ["PartitionedCall/model_326/tf.math.divide_5/truediv"], "attr": {"T": {"type": "DT_FLOAT"}}}, {"name": "PartitionedCall/model_326/tf.math.add_27/Add", "op": "AddV2", "input": ["PartitionedCall/model_326/tf.math.erf_1/Erf", "unknown_156"], "attr": {"T": {"type": "DT_FLOAT"}}}, {"name": "PartitionedCall/model_326/tf.math.multiply_109/Mul", "op": "Mul", "input": ["PartitionedCall/model_326/tf.math.add_27/Add", "PartitionedCall/model_326/tf.math.multiply_106/Mul"], "attr": {"_grappler:ArithmeticOptimizer:MinimizeBroadcasts": {"b": true}, "T": {"type": "DT_FLOAT"}}}, {"name": "PartitionedCall/model_326/tf.linalg.matmul_23/MatMul", "op": "BatchMatMulV2", "input": ["PartitionedCall/model_326/tf.math.multiply_109/Mul", "unknown_27"], "attr": {"adj_x": {"b": false}, "adj_y": {"b": false}, "T": {"type": "DT_FLOAT"}}}, {"name": "PartitionedCall/model_326/tf.math.add_28/Add", "op": "AddV2", "input": ["PartitionedCall/model_326/tf.linalg.matmul_23/MatMul", "unknown_28"], "attr": {"T": {"type": "DT_FLOAT"}}}, {"name": "PartitionedCall/model_326/tf.math.multiply_114/Mul", "op": "Mul", "input": ["PartitionedCall/model_326/tf.math.add_28/Add", "PartitionedCall/model_326/tf.math.multiply_114/Mul/y"], "attr": {"T": {"type": "DT_FLOAT"}}}, {"name": "PartitionedCall/model_326/tf.math.add_29/Add", "op": "AddV2", "input": ["PartitionedCall/model_326/tf.math.add_21/Add", "PartitionedCall/model_326/tf.math.multiply_114/Mul"], "attr": {"T": {"type": "DT_FLOAT"}}}, {"name": "PartitionedCall/model_326/tf.math.reduce_mean_17/Mean", "op": "Mean", "input": ["PartitionedCall/model_326/tf.math.add_29/Add", "PartitionedCall/model_326/tf.math.reduce_mean_93/Mean/reduction_indices"], "attr": {"keep_dims": {"b": true}, "Tidx": {"type": "DT_INT32"}, "T": {"type": "DT_FLOAT"}}}, {"name": "PartitionedCall/model_326/tf.math.subtract_4/Sub", "op": "Sub", "input": ["PartitionedCall/model_326/tf.math.add_29/Add", "PartitionedCall/model_326/tf.math.reduce_mean_17/Mean"], "attr": {"T": {"type": "DT_FLOAT"}}}, {"name": "PartitionedCall/model_326/tf.math.multiply_121/ArithmeticOptimizer/ReplaceMulWithSquare_Mul", "op": "Square", "input": ["PartitionedCall/model_326/tf.math.subtract_4/Sub"], "attr": {"T": {"type": "DT_FLOAT"}}}, {"name": "PartitionedCall/model_326/tf.math.reduce_mean_19/Mean", "op": "Mean", "input": ["PartitionedCall/model_326/tf.math.multiply_121/ArithmeticOptimizer/ReplaceMulWithSquare_Mul", "PartitionedCall/model_326/tf.math.reduce_mean_93/Mean/reduction_indices"], "attr": {"keep_dims": {"b": true}, "Tidx": {"type": "DT_INT32"}, "T": {"type": "DT_FLOAT"}}}, {"name": "PartitionedCall/model_326/tf.math.add_31/Add", "op": "AddV2", "input": ["PartitionedCall/model_326/tf.math.reduce_mean_19/Mean", "unknown_152"], "attr": {"T": {"type": "DT_FLOAT"}}}, {"name": "PartitionedCall/model_326/tf.math.sqrt_4/Sqrt", "op": "Rsqrt", "input": ["PartitionedCall/model_326/tf.math.add_31/Add"], "attr": {"T": {"type": "DT_FLOAT"}}}, {"name": "PartitionedCall/model_326/tf.math.divide_6/truediv", "op": "Mul", "input": ["PartitionedCall/model_326/tf.math.multiply_127/Mul/y", "PartitionedCall/model_326/tf.math.sqrt_4/Sqrt"], "attr": {"T": {"type": "DT_FLOAT"}, "_grappler:ArithmeticOptimizer:MinimizeBroadcasts": {"b": true}}}, {"name": "PartitionedCall/model_326/tf.math.multiply_127/Mul", "op": "Mul", "input": ["PartitionedCall/model_326/tf.math.divide_6/truediv", "PartitionedCall/model_326/tf.math.subtract_4/Sub"], "attr": {"T": {"type": "DT_FLOAT"}, "_grappler:ArithmeticOptimizer:MinimizeBroadcasts": {"b": true}}}, {"name": "PartitionedCall/model_326/tf.math.add_32/Add", "op": "AddV2", "input": ["PartitionedCall/model_326/tf.math.multiply_127/Mul", "unknown_30"], "attr": {"T": {"type": "DT_FLOAT"}}}, {"name": "PartitionedCall/model_326/tf.linalg.matmul_25/MatMul", "op": "BatchMatMulV2", "input": ["PartitionedCall/model_326/tf.math.add_32/Add", "unknown_31"], "attr": {"adj_x": {"b": false}, "adj_y": {"b": false}, "T": {"type": "DT_FLOAT"}}}, {"name": "PartitionedCall/model_326/tf.math.add_33/Add", "op": "AddV2", "input": ["PartitionedCall/model_326/tf.linalg.matmul_25/MatMul", "unknown_32"], "attr": {"T": {"type": "DT_FLOAT"}}}, {"name": "PartitionedCall/model_326/tf.reshape_17/Reshape", "op": "Reshape", "input": ["PartitionedCall/model_326/tf.math.add_33/Add", "PartitionedCall/model_326/tf.reshape_77/Reshape/shape"], "attr": {"Tshape": {"type": "DT_INT32"}, "T": {"type": "DT_FLOAT"}}}, {"name": "PartitionedCall/model_326/tf.compat.v1.transpose_59/transpose", "op": "Transpose", "input": ["PartitionedCall/model_326/tf.reshape_17/Reshape", "PartitionedCall/model_326/tf.compat.v1.transpose_285/transpose/perm"], "attr": {"T": {"type": "DT_FLOAT"}, "Tperm": {"type": "DT_INT32"}}}, {"name": "PartitionedCall/model_326/tf.compat.v1.gather_8/GatherV2", "op": "GatherV2", "input": ["PartitionedCall/model_326/tf.compat.v1.transpose_59/transpose", "PartitionedCall/model_326/tf.compat.v1.gather_35/GatherV2/indices", "PartitionedCall/model_326/tf.compat.v1.gather_33/GatherV2/indices"], "attr": {"Tindices": {"type": "DT_INT32"}, "Tparams": {"type": "DT_FLOAT"}, "Taxis": {"type": "DT_INT32"}, "batch_dims": {"i": "0"}}}, {"name": "PartitionedCall/model_326/tf.compat.v1.gather_7/GatherV2", "op": "GatherV2", "input": ["PartitionedCall/model_326/tf.compat.v1.transpose_59/transpose", "PartitionedCall/model_326/tf.compat.v1.gather_34/GatherV2/indices", "PartitionedCall/model_326/tf.compat.v1.gather_33/GatherV2/indices"], "attr": {"Taxis": {"type": "DT_INT32"}, "batch_dims": {"i": "0"}, "Tindices": {"type": "DT_INT32"}, "Tparams": {"type": "DT_FLOAT"}}}, {"name": "PartitionedCall/model_326/tf.compat.v1.gather_6/GatherV2", "op": "GatherV2", "input": ["PartitionedCall/model_326/tf.compat.v1.transpose_59/transpose", "PartitionedCall/model_326/tf.compat.v1.gather_33/GatherV2/indices", "PartitionedCall/model_326/tf.compat.v1.gather_33/GatherV2/indices"], "attr": {"batch_dims": {"i": "0"}, "Tindices": {"type": "DT_INT32"}, "Tparams": {"type": "DT_FLOAT"}, "Taxis": {"type": "DT_INT32"}}}, {"name": "PartitionedCall/model_326/tf.compat.v1.transpose_60/transpose", "op": "Transpose", "input": ["PartitionedCall/model_326/tf.compat.v1.gather_7/GatherV2", "PartitionedCall/model_326/tf.compat.v1.transpose_287/transpose/perm"], "attr": {"Tperm": {"type": "DT_INT32"}, "T": {"type": "DT_FLOAT"}}}, {"name": "PartitionedCall/model_326/tf.math.multiply_136/Mul", "op": "Mul", "input": ["PartitionedCall/model_326/tf.compat.v1.gather_6/GatherV2", "PartitionedCall/model_326/tf.math.multiply_671/Mul/y"], "attr": {"T": {"type": "DT_FLOAT"}}}, {"name": "PartitionedCall/model_326/tf.linalg.matmul_27/MatMul", "op": "BatchMatMulV2", "input": ["PartitionedCall/model_326/tf.math.multiply_136/Mul", "PartitionedCall/model_326/tf.compat.v1.transpose_60/transpose"], "attr": {"adj_x": {"b": false}, "adj_y": {"b": false}, "T": {"type": "DT_FLOAT"}}}, {"name": "PartitionedCall/model_326/tf.nn.softmax_5/wa/blocks.2/attn/Softmax", "op": "Softmax", "input": ["PartitionedCall/model_326/tf.linalg.matmul_27/MatMul"], "attr": {"T": {"type": "DT_FLOAT"}}}, {"name": "PartitionedCall/model_326/tf.linalg.matmul_29/MatMul", "op": "BatchMatMulV2", "input": ["PartitionedCall/model_326/tf.nn.softmax_5/wa/blocks.2/attn/Softmax", "PartitionedCall/model_326/tf.compat.v1.gather_8/GatherV2"], "attr": {"adj_x": {"b": false}, "adj_y": {"b": false}, "T": {"type": "DT_FLOAT"}}}, {"name": "PartitionedCall/model_326/tf.compat.v1.transpose_61/transpose", "op": "Transpose", "input": ["PartitionedCall/model_326/tf.linalg.matmul_29/MatMul", "PartitionedCall/model_326/tf.compat.v1.transpose_288/transpose/perm"], "attr": {"T": {"type": "DT_FLOAT"}, "Tperm": {"type": "DT_INT32"}}}, {"name": "PartitionedCall/model_326/tf.reshape_20/Reshape", "op": "Reshape", "input": ["PartitionedCall/model_326/tf.compat.v1.transpose_61/transpose", "PartitionedCall/model_326/tf.reshape_83/Reshape/shape"], "attr": {"T": {"type": "DT_FLOAT"}, "Tshape": {"type": "DT_INT32"}}}, {"name": "PartitionedCall/model_326/tf.linalg.matmul_31/MatMul", "op": "BatchMatMulV2", "input": ["PartitionedCall/model_326/tf.reshape_20/Reshape", "unknown_33"], "attr": {"adj_x": {"b": false}, "adj_y": {"b": false}, "T": {"type": "DT_FLOAT"}}}, {"name": "PartitionedCall/model_326/tf.math.add_34/Add", "op": "AddV2", "input": ["PartitionedCall/model_326/tf.linalg.matmul_31/MatMul", "unknown_34"], "attr": {"T": {"type": "DT_FLOAT"}}}, {"name": "PartitionedCall/model_326/tf.math.multiply_141/Mul", "op": "Mul", "input": ["PartitionedCall/model_326/tf.math.add_34/Add", "PartitionedCall/model_326/tf.math.multiply_141/Mul/y"], "attr": {"T": {"type": "DT_FLOAT"}}}, {"name": "PartitionedCall/model_326/tf.math.add_35/Add", "op": "AddV2", "input": ["PartitionedCall/model_326/tf.math.add_29/Add", "PartitionedCall/model_326/tf.math.multiply_141/Mul"], "attr": {"T": {"type": "DT_FLOAT"}}}, {"name": "PartitionedCall/model_326/tf.math.reduce_mean_21/Mean", "op": "Mean", "input": ["PartitionedCall/model_326/tf.math.add_35/Add", "PartitionedCall/model_326/tf.math.reduce_mean_93/Mean/reduction_indices"], "attr": {"keep_dims": {"b": true}, "Tidx": {"type": "DT_INT32"}, "T": {"type": "DT_FLOAT"}}}, {"name": "PartitionedCall/model_326/tf.math.subtract_5/Sub", "op": "Sub", "input": ["PartitionedCall/model_326/tf.math.add_35/Add", "PartitionedCall/model_326/tf.math.reduce_mean_21/Mean"], "attr": {"T": {"type": "DT_FLOAT"}}}, {"name": "PartitionedCall/model_326/tf.math.multiply_148/ArithmeticOptimizer/ReplaceMulWithSquare_Mul", "op": "Square", "input": ["PartitionedCall/model_326/tf.math.subtract_5/Sub"], "attr": {"T": {"type": "DT_FLOAT"}}}, {"name": "PartitionedCall/model_326/tf.math.reduce_mean_23/Mean", "op": "Mean", "input": ["PartitionedCall/model_326/tf.math.multiply_148/ArithmeticOptimizer/ReplaceMulWithSquare_Mul", "PartitionedCall/model_326/tf.math.reduce_mean_93/Mean/reduction_indices"], "attr": {"T": {"type": "DT_FLOAT"}, "keep_dims": {"b": true}, "Tidx": {"type": "DT_INT32"}}}, {"name": "PartitionedCall/model_326/tf.math.add_37/Add", "op": "AddV2", "input": ["PartitionedCall/model_326/tf.math.reduce_mean_23/Mean", "unknown_152"], "attr": {"T": {"type": "DT_FLOAT"}}}, {"name": "PartitionedCall/model_326/tf.math.sqrt_5/Sqrt", "op": "Rsqrt", "input": ["PartitionedCall/model_326/tf.math.add_37/Add"], "attr": {"T": {"type": "DT_FLOAT"}}}, {"name": "PartitionedCall/model_326/tf.math.divide_7/truediv", "op": "Mul", "input": ["PartitionedCall/model_326/tf.math.multiply_154/Mul/y", "PartitionedCall/model_326/tf.math.sqrt_5/Sqrt"], "attr": {"_grappler:ArithmeticOptimizer:MinimizeBroadcasts": {"b": true}, "T": {"type": "DT_FLOAT"}}}, {"name": "PartitionedCall/model_326/tf.math.multiply_154/Mul", "op": "Mul", "input": ["PartitionedCall/model_326/tf.math.divide_7/truediv", "PartitionedCall/model_326/tf.math.subtract_5/Sub"], "attr": {"_grappler:ArithmeticOptimizer:MinimizeBroadcasts": {"b": true}, "T": {"type": "DT_FLOAT"}}}, {"name": "PartitionedCall/model_326/tf.math.add_38/Add", "op": "AddV2", "input": ["PartitionedCall/model_326/tf.math.multiply_154/Mul", "unknown_36"], "attr": {"T": {"type": "DT_FLOAT"}}}, {"name": "PartitionedCall/model_326/tf.linalg.matmul_33/MatMul", "op": "BatchMatMulV2", "input": ["PartitionedCall/model_326/tf.math.add_38/Add", "unknown_37"], "attr": {"adj_y": {"b": false}, "T": {"type": "DT_FLOAT"}, "adj_x": {"b": false}}}, {"name": "PartitionedCall/model_326/tf.math.add_39/Add", "op": "AddV2", "input": ["PartitionedCall/model_326/tf.linalg.matmul_33/MatMul", "unknown_38"], "attr": {"T": {"type": "DT_FLOAT"}}}, {"name": "PartitionedCall/model_326/tf.math.multiply_164/Mul", "op": "Mul", "input": ["PartitionedCall/model_326/tf.math.add_39/Add", "PartitionedCall/model_326/tf.math.multiply_704/Mul/y"], "attr": {"T": {"type": "DT_FLOAT"}, "_grappler:ArithmeticOptimizer:MinimizeBroadcasts": {"b": true}}}, {"name": "PartitionedCall/model_326/tf.math.divide_8/truediv", "op": "Mul", "input": ["ConstantFolding/PartitionedCall/model_326/tf.math.divide_35/truediv_recip", "PartitionedCall/model_326/tf.math.add_39/Add"], "attr": {"T": {"type": "DT_FLOAT"}}}, {"name": "PartitionedCall/model_326/tf.math.erf_2/Erf", "op": "Erf", "input": ["PartitionedCall/model_326/tf.math.divide_8/truediv"], "attr": {"T": {"type": "DT_FLOAT"}}}, {"name": "PartitionedCall/model_326/tf.math.add_41/Add", "op": "AddV2", "input": ["PartitionedCall/model_326/tf.math.erf_2/Erf", "unknown_156"], "attr": {"T": {"type": "DT_FLOAT"}}}, {"name": "PartitionedCall/model_326/tf.math.multiply_167/Mul", "op": "Mul", "input": ["PartitionedCall/model_326/tf.math.add_41/Add", "PartitionedCall/model_326/tf.math.multiply_164/Mul"], "attr": {"T": {"type": "DT_FLOAT"}, "_grappler:ArithmeticOptimizer:MinimizeBroadcasts": {"b": true}}}, {"name": "PartitionedCall/model_326/tf.linalg.matmul_35/MatMul", "op": "BatchMatMulV2", "input": ["PartitionedCall/model_326/tf.math.multiply_167/Mul", "unknown_40"], "attr": {"adj_x": {"b": false}, "adj_y": {"b": false}, "T": {"type": "DT_FLOAT"}}}, {"name": "PartitionedCall/model_326/tf.math.add_42/Add", "op": "AddV2", "input": ["PartitionedCall/model_326/tf.linalg.matmul_35/MatMul", "unknown_41"], "attr": {"T": {"type": "DT_FLOAT"}}}, {"name": "PartitionedCall/model_326/tf.math.multiply_172/Mul", "op": "Mul", "input": ["PartitionedCall/model_326/tf.math.add_42/Add", "PartitionedCall/model_326/tf.math.multiply_172/Mul/y"], "attr": {"T": {"type": "DT_FLOAT"}}}, {"name": "PartitionedCall/model_326/tf.math.add_43/Add", "op": "AddV2", "input": ["PartitionedCall/model_326/tf.math.add_35/Add", "PartitionedCall/model_326/tf.math.multiply_172/Mul"], "attr": {"T": {"type": "DT_FLOAT"}}}, {"name": "PartitionedCall/model_326/tf.math.reduce_mean_25/Mean", "op": "Mean", "input": ["PartitionedCall/model_326/tf.math.add_43/Add", "PartitionedCall/model_326/tf.math.reduce_mean_93/Mean/reduction_indices"], "attr": {"T": {"type": "DT_FLOAT"}, "keep_dims": {"b": true}, "Tidx": {"type": "DT_INT32"}}}, {"name": "PartitionedCall/model_326/tf.math.subtract_6/Sub", "op": "Sub", "input": ["PartitionedCall/model_326/tf.math.add_43/Add", "PartitionedCall/model_326/tf.math.reduce_mean_25/Mean"], "attr": {"T": {"type": "DT_FLOAT"}}}, {"name": "PartitionedCall/model_326/tf.math.multiply_179/ArithmeticOptimizer/ReplaceMulWithSquare_Mul", "op": "Square", "input": ["PartitionedCall/model_326/tf.math.subtract_6/Sub"], "attr": {"T": {"type": "DT_FLOAT"}}}, {"name": "PartitionedCall/model_326/tf.math.reduce_mean_27/Mean", "op": "Mean", "input": ["PartitionedCall/model_326/tf.math.multiply_179/ArithmeticOptimizer/ReplaceMulWithSquare_Mul", "PartitionedCall/model_326/tf.math.reduce_mean_93/Mean/reduction_indices"], "attr": {"keep_dims": {"b": true}, "Tidx": {"type": "DT_INT32"}, "T": {"type": "DT_FLOAT"}}}, {"name": "PartitionedCall/model_326/tf.math.add_45/Add", "op": "AddV2", "input": ["PartitionedCall/model_326/tf.math.reduce_mean_27/Mean", "unknown_152"], "attr": {"T": {"type": "DT_FLOAT"}}}, {"name": "PartitionedCall/model_326/tf.math.sqrt_6/Sqrt", "op": "Rsqrt", "input": ["PartitionedCall/model_326/tf.math.add_45/Add"], "attr": {"T": {"type": "DT_FLOAT"}}}, {"name": "PartitionedCall/model_326/tf.math.divide_9/truediv", "op": "Mul", "input": ["PartitionedCall/model_326/tf.math.multiply_185/Mul/y", "PartitionedCall/model_326/tf.math.sqrt_6/Sqrt"], "attr": {"_grappler:ArithmeticOptimizer:MinimizeBroadcasts": {"b": true}, "T": {"type": "DT_FLOAT"}}}, {"name": "PartitionedCall/model_326/tf.math.multiply_185/Mul", "op": "Mul", "input": ["PartitionedCall/model_326/tf.math.divide_9/truediv", "PartitionedCall/model_326/tf.math.subtract_6/Sub"], "attr": {"T": {"type": "DT_FLOAT"}, "_grappler:ArithmeticOptimizer:MinimizeBroadcasts": {"b": true}}}, {"name": "PartitionedCall/model_326/tf.math.add_46/Add", "op": "AddV2", "input": ["PartitionedCall/model_326/tf.math.multiply_185/Mul", "unknown_43"], "attr": {"T": {"type": "DT_FLOAT"}}}, {"name": "PartitionedCall/model_326/tf.linalg.matmul_37/MatMul", "op": "BatchMatMulV2", "input": ["PartitionedCall/model_326/tf.math.add_46/Add", "unknown_44"], "attr": {"adj_x": {"b": false}, "adj_y": {"b": false}, "T": {"type": "DT_FLOAT"}}}, {"name": "PartitionedCall/model_326/tf.math.add_47/Add", "op": "AddV2", "input": ["PartitionedCall/model_326/tf.linalg.matmul_37/MatMul", "unknown_45"], "attr": {"T": {"type": "DT_FLOAT"}}}, {"name": "PartitionedCall/model_326/tf.reshape_23/Reshape", "op": "Reshape", "input": ["PartitionedCall/model_326/tf.math.add_47/Add", "PartitionedCall/model_326/tf.reshape_77/Reshape/shape"], "attr": {"T": {"type": "DT_FLOAT"}, "Tshape": {"type": "DT_INT32"}}}, {"name": "PartitionedCall/model_326/tf.compat.v1.transpose_82/transpose", "op": "Transpose", "input": ["PartitionedCall/model_326/tf.reshape_23/Reshape", "PartitionedCall/model_326/tf.compat.v1.transpose_285/transpose/perm"], "attr": {"Tperm": {"type": "DT_INT32"}, "T": {"type": "DT_FLOAT"}}}, {"name": "PartitionedCall/model_326/tf.compat.v1.gather_11/GatherV2", "op": "GatherV2", "input": ["PartitionedCall/model_326/tf.compat.v1.transpose_82/transpose", "PartitionedCall/model_326/tf.compat.v1.gather_35/GatherV2/indices", "PartitionedCall/model_326/tf.compat.v1.gather_33/GatherV2/indices"], "attr": {"Taxis": {"type": "DT_INT32"}, "batch_dims": {"i": "0"}, "Tindices": {"type": "DT_INT32"}, "Tparams": {"type": "DT_FLOAT"}}}, {"name": "PartitionedCall/model_326/tf.compat.v1.gather_10/GatherV2", "op": "GatherV2", "input": ["PartitionedCall/model_326/tf.compat.v1.transpose_82/transpose", "PartitionedCall/model_326/tf.compat.v1.gather_34/GatherV2/indices", "PartitionedCall/model_326/tf.compat.v1.gather_33/GatherV2/indices"], "attr": {"Taxis": {"type": "DT_INT32"}, "batch_dims": {"i": "0"}, "Tindices": {"type": "DT_INT32"}, "Tparams": {"type": "DT_FLOAT"}}}, {"name": "PartitionedCall/model_326/tf.compat.v1.gather_9/GatherV2", "op": "GatherV2", "input": ["PartitionedCall/model_326/tf.compat.v1.transpose_82/transpose", "PartitionedCall/model_326/tf.compat.v1.gather_33/GatherV2/indices", "PartitionedCall/model_326/tf.compat.v1.gather_33/GatherV2/indices"], "attr": {"Tparams": {"type": "DT_FLOAT"}, "Taxis": {"type": "DT_INT32"}, "batch_dims": {"i": "0"}, "Tindices": {"type": "DT_INT32"}}}, {"name": "PartitionedCall/model_326/tf.compat.v1.transpose_83/transpose", "op": "Transpose", "input": ["PartitionedCall/model_326/tf.compat.v1.gather_10/GatherV2", "PartitionedCall/model_326/tf.compat.v1.transpose_287/transpose/perm"], "attr": {"Tperm": {"type": "DT_INT32"}, "T": {"type": "DT_FLOAT"}}}, {"name": "PartitionedCall/model_326/tf.math.multiply_194/Mul", "op": "Mul", "input": ["PartitionedCall/model_326/tf.compat.v1.gather_9/GatherV2", "PartitionedCall/model_326/tf.math.multiply_671/Mul/y"], "attr": {"T": {"type": "DT_FLOAT"}}}, {"name": "PartitionedCall/model_326/tf.linalg.matmul_39/MatMul", "op": "BatchMatMulV2", "input": ["PartitionedCall/model_326/tf.math.multiply_194/Mul", "PartitionedCall/model_326/tf.compat.v1.transpose_83/transpose"], "attr": {"adj_x": {"b": false}, "adj_y": {"b": false}, "T": {"type": "DT_FLOAT"}}}, {"name": "PartitionedCall/model_326/tf.nn.softmax_7/wa/blocks.3/attn/Softmax", "op": "Softmax", "input": ["PartitionedCall/model_326/tf.linalg.matmul_39/MatMul"], "attr": {"T": {"type": "DT_FLOAT"}}}, {"name": "PartitionedCall/model_326/tf.linalg.matmul_41/MatMul", "op": "BatchMatMulV2", "input": ["PartitionedCall/model_326/tf.nn.softmax_7/wa/blocks.3/attn/Softmax", "PartitionedCall/model_326/tf.compat.v1.gather_11/GatherV2"], "attr": {"adj_y": {"b": false}, "T": {"type": "DT_FLOAT"}, "adj_x": {"b": false}}}, {"name": "PartitionedCall/model_326/tf.compat.v1.transpose_84/transpose", "op": "Transpose", "input": ["PartitionedCall/model_326/tf.linalg.matmul_41/MatMul", "PartitionedCall/model_326/tf.compat.v1.transpose_288/transpose/perm"], "attr": {"Tperm": {"type": "DT_INT32"}, "T": {"type": "DT_FLOAT"}}}, {"name": "PartitionedCall/model_326/tf.reshape_26/Reshape", "op": "Reshape", "input": ["PartitionedCall/model_326/tf.compat.v1.transpose_84/transpose", "PartitionedCall/model_326/tf.reshape_83/Reshape/shape"], "attr": {"T": {"type": "DT_FLOAT"}, "Tshape": {"type": "DT_INT32"}}}, {"name": "PartitionedCall/model_326/tf.linalg.matmul_43/MatMul", "op": "BatchMatMulV2", "input": ["PartitionedCall/model_326/tf.reshape_26/Reshape", "unknown_46"], "attr": {"adj_x": {"b": false}, "adj_y": {"b": false}, "T": {"type": "DT_FLOAT"}}}, {"name": "PartitionedCall/model_326/tf.math.add_48/Add", "op": "AddV2", "input": ["PartitionedCall/model_326/tf.linalg.matmul_43/MatMul", "unknown_47"], "attr": {"T": {"type": "DT_FLOAT"}}}, {"name": "PartitionedCall/model_326/tf.math.multiply_199/Mul", "op": "Mul", "input": ["PartitionedCall/model_326/tf.math.add_48/Add", "PartitionedCall/model_326/tf.math.multiply_199/Mul/y"], "attr": {"T": {"type": "DT_FLOAT"}}}, {"name": "PartitionedCall/model_326/tf.math.add_49/Add", "op": "AddV2", "input": ["PartitionedCall/model_326/tf.math.add_43/Add", "PartitionedCall/model_326/tf.math.multiply_199/Mul"], "attr": {"T": {"type": "DT_FLOAT"}}}, {"name": "PartitionedCall/model_326/tf.math.reduce_mean_29/Mean", "op": "Mean", "input": ["PartitionedCall/model_326/tf.math.add_49/Add", "PartitionedCall/model_326/tf.math.reduce_mean_93/Mean/reduction_indices"], "attr": {"keep_dims": {"b": true}, "Tidx": {"type": "DT_INT32"}, "T": {"type": "DT_FLOAT"}}}, {"name": "PartitionedCall/model_326/tf.math.subtract_7/Sub", "op": "Sub", "input": ["PartitionedCall/model_326/tf.math.add_49/Add", "PartitionedCall/model_326/tf.math.reduce_mean_29/Mean"], "attr": {"T": {"type": "DT_FLOAT"}}}, {"name": "PartitionedCall/model_326/tf.math.multiply_206/ArithmeticOptimizer/ReplaceMulWithSquare_Mul", "op": "Square", "input": ["PartitionedCall/model_326/tf.math.subtract_7/Sub"], "attr": {"T": {"type": "DT_FLOAT"}}}, {"name": "PartitionedCall/model_326/tf.math.reduce_mean_31/Mean", "op": "Mean", "input": ["PartitionedCall/model_326/tf.math.multiply_206/ArithmeticOptimizer/ReplaceMulWithSquare_Mul", "PartitionedCall/model_326/tf.math.reduce_mean_93/Mean/reduction_indices"], "attr": {"keep_dims": {"b": true}, "Tidx": {"type": "DT_INT32"}, "T": {"type": "DT_FLOAT"}}}, {"name": "PartitionedCall/model_326/tf.math.add_51/Add", "op": "AddV2", "input": ["PartitionedCall/model_326/tf.math.reduce_mean_31/Mean", "unknown_152"], "attr": {"T": {"type": "DT_FLOAT"}}}, {"name": "PartitionedCall/model_326/tf.math.sqrt_7/Sqrt", "op": "Rsqrt", "input": ["PartitionedCall/model_326/tf.math.add_51/Add"], "attr": {"T": {"type": "DT_FLOAT"}}}, {"name": "PartitionedCall/model_326/tf.math.divide_10/truediv", "op": "Mul", "input": ["PartitionedCall/model_326/tf.math.multiply_212/Mul/y", "PartitionedCall/model_326/tf.math.sqrt_7/Sqrt"], "attr": {"T": {"type": "DT_FLOAT"}, "_grappler:ArithmeticOptimizer:MinimizeBroadcasts": {"b": true}}}, {"name": "PartitionedCall/model_326/tf.math.multiply_212/Mul", "op": "Mul", "input": ["PartitionedCall/model_326/tf.math.divide_10/truediv", "PartitionedCall/model_326/tf.math.subtract_7/Sub"], "attr": {"T": {"type": "DT_FLOAT"}, "_grappler:ArithmeticOptimizer:MinimizeBroadcasts": {"b": true}}}, {"name": "PartitionedCall/model_326/tf.math.add_52/Add", "op": "AddV2", "input": ["PartitionedCall/model_326/tf.math.multiply_212/Mul", "unknown_49"], "attr": {"T": {"type": "DT_FLOAT"}}}, {"name": "PartitionedCall/model_326/tf.linalg.matmul_45/MatMul", "op": "BatchMatMulV2", "input": ["PartitionedCall/model_326/tf.math.add_52/Add", "unknown_50"], "attr": {"adj_x": {"b": false}, "adj_y": {"b": false}, "T": {"type": "DT_FLOAT"}}}, {"name": "PartitionedCall/model_326/tf.math.add_53/Add", "op": "AddV2", "input": ["PartitionedCall/model_326/tf.linalg.matmul_45/MatMul", "unknown_51"], "attr": {"T": {"type": "DT_FLOAT"}}}, {"name": "PartitionedCall/model_326/tf.math.multiply_222/Mul", "op": "Mul", "input": ["PartitionedCall/model_326/tf.math.add_53/Add", "PartitionedCall/model_326/tf.math.multiply_704/Mul/y"], "attr": {"T": {"type": "DT_FLOAT"}, "_grappler:ArithmeticOptimizer:MinimizeBroadcasts": {"b": true}}}, {"name": "PartitionedCall/model_326/tf.math.divide_11/truediv", "op": "Mul", "input": ["ConstantFolding/PartitionedCall/model_326/tf.math.divide_35/truediv_recip", "PartitionedCall/model_326/tf.math.add_53/Add"], "attr": {"T": {"type": "DT_FLOAT"}}}, {"name": "PartitionedCall/model_326/tf.math.erf_3/Erf", "op": "Erf", "input": ["PartitionedCall/model_326/tf.math.divide_11/truediv"], "attr": {"T": {"type": "DT_FLOAT"}}}, {"name": "PartitionedCall/model_326/tf.math.add_55/Add", "op": "AddV2", "input": ["PartitionedCall/model_326/tf.math.erf_3/Erf", "unknown_156"], "attr": {"T": {"type": "DT_FLOAT"}}}, {"name": "PartitionedCall/model_326/tf.math.multiply_225/Mul", "op": "Mul", "input": ["PartitionedCall/model_326/tf.math.add_55/Add", "PartitionedCall/model_326/tf.math.multiply_222/Mul"], "attr": {"_grappler:ArithmeticOptimizer:MinimizeBroadcasts": {"b": true}, "T": {"type": "DT_FLOAT"}}}, {"name": "PartitionedCall/model_326/tf.linalg.matmul_47/MatMul", "op": "BatchMatMulV2", "input": ["PartitionedCall/model_326/tf.math.multiply_225/Mul", "unknown_53"], "attr": {"adj_x": {"b": false}, "adj_y": {"b": false}, "T": {"type": "DT_FLOAT"}}}, {"name": "PartitionedCall/model_326/tf.math.add_56/Add", "op": "AddV2", "input": ["PartitionedCall/model_326/tf.linalg.matmul_47/MatMul", "unknown_54"], "attr": {"T": {"type": "DT_FLOAT"}}}, {"name": "PartitionedCall/model_326/tf.math.multiply_230/Mul", "op": "Mul", "input": ["PartitionedCall/model_326/tf.math.add_56/Add", "PartitionedCall/model_326/tf.math.multiply_230/Mul/y"], "attr": {"T": {"type": "DT_FLOAT"}}}, {"name": "PartitionedCall/model_326/tf.math.add_57/Add", "op": "AddV2", "input": ["PartitionedCall/model_326/tf.math.add_49/Add", "PartitionedCall/model_326/tf.math.multiply_230/Mul"], "attr": {"T": {"type": "DT_FLOAT"}}}, {"name": "PartitionedCall/model_326/tf.math.reduce_mean_33/Mean", "op": "Mean", "input": ["PartitionedCall/model_326/tf.math.add_57/Add", "PartitionedCall/model_326/tf.math.reduce_mean_93/Mean/reduction_indices"], "attr": {"T": {"type": "DT_FLOAT"}, "keep_dims": {"b": true}, "Tidx": {"type": "DT_INT32"}}}, {"name": "PartitionedCall/model_326/tf.math.subtract_8/Sub", "op": "Sub", "input": ["PartitionedCall/model_326/tf.math.add_57/Add", "PartitionedCall/model_326/tf.math.reduce_mean_33/Mean"], "attr": {"T": {"type": "DT_FLOAT"}}}, {"name": "PartitionedCall/model_326/tf.math.multiply_237/ArithmeticOptimizer/ReplaceMulWithSquare_Mul", "op": "Square", "input": ["PartitionedCall/model_326/tf.math.subtract_8/Sub"], "attr": {"T": {"type": "DT_FLOAT"}}}, {"name": "PartitionedCall/model_326/tf.math.reduce_mean_35/Mean", "op": "Mean", "input": ["PartitionedCall/model_326/tf.math.multiply_237/ArithmeticOptimizer/ReplaceMulWithSquare_Mul", "PartitionedCall/model_326/tf.math.reduce_mean_93/Mean/reduction_indices"], "attr": {"keep_dims": {"b": true}, "Tidx": {"type": "DT_INT32"}, "T": {"type": "DT_FLOAT"}}}, {"name": "PartitionedCall/model_326/tf.math.add_59/Add", "op": "AddV2", "input": ["PartitionedCall/model_326/tf.math.reduce_mean_35/Mean", "unknown_152"], "attr": {"T": {"type": "DT_FLOAT"}}}, {"name": "PartitionedCall/model_326/tf.math.sqrt_8/Sqrt", "op": "Rsqrt", "input": ["PartitionedCall/model_326/tf.math.add_59/Add"], "attr": {"T": {"type": "DT_FLOAT"}}}, {"name": "PartitionedCall/model_326/tf.math.divide_12/truediv", "op": "Mul", "input": ["PartitionedCall/model_326/tf.math.multiply_243/Mul/y", "PartitionedCall/model_326/tf.math.sqrt_8/Sqrt"], "attr": {"_grappler:ArithmeticOptimizer:MinimizeBroadcasts": {"b": true}, "T": {"type": "DT_FLOAT"}}}, {"name": "PartitionedCall/model_326/tf.math.multiply_243/Mul", "op": "Mul", "input": ["PartitionedCall/model_326/tf.math.divide_12/truediv", "PartitionedCall/model_326/tf.math.subtract_8/Sub"], "attr": {"T": {"type": "DT_FLOAT"}, "_grappler:ArithmeticOptimizer:MinimizeBroadcasts": {"b": true}}}, {"name": "PartitionedCall/model_326/tf.math.add_60/Add", "op": "AddV2", "input": ["PartitionedCall/model_326/tf.math.multiply_243/Mul", "unknown_56"], "attr": {"T": {"type": "DT_FLOAT"}}}, {"name": "PartitionedCall/model_326/tf.linalg.matmul_49/MatMul", "op": "BatchMatMulV2", "input": ["PartitionedCall/model_326/tf.math.add_60/Add", "unknown_57"], "attr": {"adj_x": {"b": false}, "adj_y": {"b": false}, "T": {"type": "DT_FLOAT"}}}, {"name": "PartitionedCall/model_326/tf.math.add_61/Add", "op": "AddV2", "input": ["PartitionedCall/model_326/tf.linalg.matmul_49/MatMul", "unknown_58"], "attr": {"T": {"type": "DT_FLOAT"}}}, {"name": "PartitionedCall/model_326/tf.reshape_29/Reshape", "op": "Reshape", "input": ["PartitionedCall/model_326/tf.math.add_61/Add", "PartitionedCall/model_326/tf.reshape_77/Reshape/shape"], "attr": {"T": {"type": "DT_FLOAT"}, "Tshape": {"type": "DT_INT32"}}}, {"name": "PartitionedCall/model_326/tf.compat.v1.transpose_105/transpose", "op": "Transpose", "input": ["PartitionedCall/model_326/tf.reshape_29/Reshape", "PartitionedCall/model_326/tf.compat.v1.transpose_285/transpose/perm"], "attr": {"Tperm": {"type": "DT_INT32"}, "T": {"type": "DT_FLOAT"}}}, {"name": "PartitionedCall/model_326/tf.compat.v1.gather_14/GatherV2", "op": "GatherV2", "input": ["PartitionedCall/model_326/tf.compat.v1.transpose_105/transpose", "PartitionedCall/model_326/tf.compat.v1.gather_35/GatherV2/indices", "PartitionedCall/model_326/tf.compat.v1.gather_33/GatherV2/indices"], "attr": {"Taxis": {"type": "DT_INT32"}, "batch_dims": {"i": "0"}, "Tindices": {"type": "DT_INT32"}, "Tparams": {"type": "DT_FLOAT"}}}, {"name": "PartitionedCall/model_326/tf.compat.v1.gather_13/GatherV2", "op": "GatherV2", "input": ["PartitionedCall/model_326/tf.compat.v1.transpose_105/transpose", "PartitionedCall/model_326/tf.compat.v1.gather_34/GatherV2/indices", "PartitionedCall/model_326/tf.compat.v1.gather_33/GatherV2/indices"], "attr": {"Taxis": {"type": "DT_INT32"}, "batch_dims": {"i": "0"}, "Tindices": {"type": "DT_INT32"}, "Tparams": {"type": "DT_FLOAT"}}}, {"name": "PartitionedCall/model_326/tf.compat.v1.gather_12/GatherV2", "op": "GatherV2", "input": ["PartitionedCall/model_326/tf.compat.v1.transpose_105/transpose", "PartitionedCall/model_326/tf.compat.v1.gather_33/GatherV2/indices", "PartitionedCall/model_326/tf.compat.v1.gather_33/GatherV2/indices"], "attr": {"Taxis": {"type": "DT_INT32"}, "batch_dims": {"i": "0"}, "Tindices": {"type": "DT_INT32"}, "Tparams": {"type": "DT_FLOAT"}}}, {"name": "PartitionedCall/model_326/tf.compat.v1.transpose_106/transpose", "op": "Transpose", "input": ["PartitionedCall/model_326/tf.compat.v1.gather_13/GatherV2", "PartitionedCall/model_326/tf.compat.v1.transpose_287/transpose/perm"], "attr": {"T": {"type": "DT_FLOAT"}, "Tperm": {"type": "DT_INT32"}}}, {"name": "PartitionedCall/model_326/tf.math.multiply_252/Mul", "op": "Mul", "input": ["PartitionedCall/model_326/tf.compat.v1.gather_12/GatherV2", "PartitionedCall/model_326/tf.math.multiply_671/Mul/y"], "attr": {"T": {"type": "DT_FLOAT"}}}, {"name": "PartitionedCall/model_326/tf.linalg.matmul_51/MatMul", "op": "BatchMatMulV2", "input": ["PartitionedCall/model_326/tf.math.multiply_252/Mul", "PartitionedCall/model_326/tf.compat.v1.transpose_106/transpose"], "attr": {"adj_x": {"b": false}, "adj_y": {"b": false}, "T": {"type": "DT_FLOAT"}}}, {"name": "PartitionedCall/model_326/tf.nn.softmax_9/wa/blocks.4/attn/Softmax", "op": "Softmax", "input": ["PartitionedCall/model_326/tf.linalg.matmul_51/MatMul"], "attr": {"T": {"type": "DT_FLOAT"}}}, {"name": "PartitionedCall/model_326/tf.linalg.matmul_53/MatMul", "op": "BatchMatMulV2", "input": ["PartitionedCall/model_326/tf.nn.softmax_9/wa/blocks.4/attn/Softmax", "PartitionedCall/model_326/tf.compat.v1.gather_14/GatherV2"], "attr": {"adj_x": {"b": false}, "adj_y": {"b": false}, "T": {"type": "DT_FLOAT"}}}, {"name": "PartitionedCall/model_326/tf.compat.v1.transpose_107/transpose", "op": "Transpose", "input": ["PartitionedCall/model_326/tf.linalg.matmul_53/MatMul", "PartitionedCall/model_326/tf.compat.v1.transpose_288/transpose/perm"], "attr": {"Tperm": {"type": "DT_INT32"}, "T": {"type": "DT_FLOAT"}}}, {"name": "PartitionedCall/model_326/tf.reshape_32/Reshape", "op": "Reshape", "input": ["PartitionedCall/model_326/tf.compat.v1.transpose_107/transpose", "PartitionedCall/model_326/tf.reshape_83/Reshape/shape"], "attr": {"T": {"type": "DT_FLOAT"}, "Tshape": {"type": "DT_INT32"}}}, {"name": "PartitionedCall/model_326/tf.linalg.matmul_55/MatMul", "op": "BatchMatMulV2", "input": ["PartitionedCall/model_326/tf.reshape_32/Reshape", "unknown_59"], "attr": {"adj_x": {"b": false}, "adj_y": {"b": false}, "T": {"type": "DT_FLOAT"}}}, {"name": "PartitionedCall/model_326/tf.math.add_62/Add", "op": "AddV2", "input": ["PartitionedCall/model_326/tf.linalg.matmul_55/MatMul", "unknown_60"], "attr": {"T": {"type": "DT_FLOAT"}}}, {"name": "PartitionedCall/model_326/tf.math.multiply_257/Mul", "op": "Mul", "input": ["PartitionedCall/model_326/tf.math.add_62/Add", "PartitionedCall/model_326/tf.math.multiply_257/Mul/y"], "attr": {"T": {"type": "DT_FLOAT"}}}, {"name": "PartitionedCall/model_326/tf.math.add_63/Add", "op": "AddV2", "input": ["PartitionedCall/model_326/tf.math.add_57/Add", "PartitionedCall/model_326/tf.math.multiply_257/Mul"], "attr": {"T": {"type": "DT_FLOAT"}}}, {"name": "PartitionedCall/model_326/tf.math.reduce_mean_37/Mean", "op": "Mean", "input": ["PartitionedCall/model_326/tf.math.add_63/Add", "PartitionedCall/model_326/tf.math.reduce_mean_93/Mean/reduction_indices"], "attr": {"T": {"type": "DT_FLOAT"}, "keep_dims": {"b": true}, "Tidx": {"type": "DT_INT32"}}}, {"name": "PartitionedCall/model_326/tf.math.subtract_9/Sub", "op": "Sub", "input": ["PartitionedCall/model_326/tf.math.add_63/Add", "PartitionedCall/model_326/tf.math.reduce_mean_37/Mean"], "attr": {"T": {"type": "DT_FLOAT"}}}, {"name": "PartitionedCall/model_326/tf.math.multiply_264/ArithmeticOptimizer/ReplaceMulWithSquare_Mul", "op": "Square", "input": ["PartitionedCall/model_326/tf.math.subtract_9/Sub"], "attr": {"T": {"type": "DT_FLOAT"}}}, {"name": "PartitionedCall/model_326/tf.math.reduce_mean_39/Mean", "op": "Mean", "input": ["PartitionedCall/model_326/tf.math.multiply_264/ArithmeticOptimizer/ReplaceMulWithSquare_Mul", "PartitionedCall/model_326/tf.math.reduce_mean_93/Mean/reduction_indices"], "attr": {"keep_dims": {"b": true}, "Tidx": {"type": "DT_INT32"}, "T": {"type": "DT_FLOAT"}}}, {"name": "PartitionedCall/model_326/tf.math.add_65/Add", "op": "AddV2", "input": ["PartitionedCall/model_326/tf.math.reduce_mean_39/Mean", "unknown_152"], "attr": {"T": {"type": "DT_FLOAT"}}}, {"name": "PartitionedCall/model_326/tf.math.sqrt_9/Sqrt", "op": "Rsqrt", "input": ["PartitionedCall/model_326/tf.math.add_65/Add"], "attr": {"T": {"type": "DT_FLOAT"}}}, {"name": "PartitionedCall/model_326/tf.math.divide_13/truediv", "op": "Mul", "input": ["PartitionedCall/model_326/tf.math.multiply_270/Mul/y", "PartitionedCall/model_326/tf.math.sqrt_9/Sqrt"], "attr": {"_grappler:ArithmeticOptimizer:MinimizeBroadcasts": {"b": true}, "T": {"type": "DT_FLOAT"}}}, {"name": "PartitionedCall/model_326/tf.math.multiply_270/Mul", "op": "Mul", "input": ["PartitionedCall/model_326/tf.math.divide_13/truediv", "PartitionedCall/model_326/tf.math.subtract_9/Sub"], "attr": {"_grappler:ArithmeticOptimizer:MinimizeBroadcasts": {"b": true}, "T": {"type": "DT_FLOAT"}}}, {"name": "PartitionedCall/model_326/tf.math.add_66/Add", "op": "AddV2", "input": ["PartitionedCall/model_326/tf.math.multiply_270/Mul", "unknown_62"], "attr": {"T": {"type": "DT_FLOAT"}}}, {"name": "PartitionedCall/model_326/tf.linalg.matmul_57/MatMul", "op": "BatchMatMulV2", "input": ["PartitionedCall/model_326/tf.math.add_66/Add", "unknown_63"], "attr": {"adj_x": {"b": false}, "adj_y": {"b": false}, "T": {"type": "DT_FLOAT"}}}, {"name": "PartitionedCall/model_326/tf.math.add_67/Add", "op": "AddV2", "input": ["PartitionedCall/model_326/tf.linalg.matmul_57/MatMul", "unknown_64"], "attr": {"T": {"type": "DT_FLOAT"}}}, {"name": "PartitionedCall/model_326/tf.math.multiply_280/Mul", "op": "Mul", "input": ["PartitionedCall/model_326/tf.math.add_67/Add", "PartitionedCall/model_326/tf.math.multiply_704/Mul/y"], "attr": {"_grappler:ArithmeticOptimizer:MinimizeBroadcasts": {"b": true}, "T": {"type": "DT_FLOAT"}}}, {"name": "PartitionedCall/model_326/tf.math.divide_14/truediv", "op": "Mul", "input": ["ConstantFolding/PartitionedCall/model_326/tf.math.divide_35/truediv_recip", "PartitionedCall/model_326/tf.math.add_67/Add"], "attr": {"T": {"type": "DT_FLOAT"}}}, {"name": "PartitionedCall/model_326/tf.math.erf_4/Erf", "op": "Erf", "input": ["PartitionedCall/model_326/tf.math.divide_14/truediv"], "attr": {"T": {"type": "DT_FLOAT"}}}, {"name": "PartitionedCall/model_326/tf.math.add_69/Add", "op": "AddV2", "input": ["PartitionedCall/model_326/tf.math.erf_4/Erf", "unknown_156"], "attr": {"T": {"type": "DT_FLOAT"}}}, {"name": "PartitionedCall/model_326/tf.math.multiply_283/Mul", "op": "Mul", "input": ["PartitionedCall/model_326/tf.math.add_69/Add", "PartitionedCall/model_326/tf.math.multiply_280/Mul"], "attr": {"_grappler:ArithmeticOptimizer:MinimizeBroadcasts": {"b": true}, "T": {"type": "DT_FLOAT"}}}, {"name": "PartitionedCall/model_326/tf.linalg.matmul_59/MatMul", "op": "BatchMatMulV2", "input": ["PartitionedCall/model_326/tf.math.multiply_283/Mul", "unknown_66"], "attr": {"adj_x": {"b": false}, "adj_y": {"b": false}, "T": {"type": "DT_FLOAT"}}}, {"name": "PartitionedCall/model_326/tf.math.add_70/Add", "op": "AddV2", "input": ["PartitionedCall/model_326/tf.linalg.matmul_59/MatMul", "unknown_67"], "attr": {"T": {"type": "DT_FLOAT"}}}, {"name": "PartitionedCall/model_326/tf.math.multiply_288/Mul", "op": "Mul", "input": ["PartitionedCall/model_326/tf.math.add_70/Add", "PartitionedCall/model_326/tf.math.multiply_288/Mul/y"], "attr": {"T": {"type": "DT_FLOAT"}}}, {"name": "PartitionedCall/model_326/tf.math.add_71/Add", "op": "AddV2", "input": ["PartitionedCall/model_326/tf.math.add_63/Add", "PartitionedCall/model_326/tf.math.multiply_288/Mul"], "attr": {"T": {"type": "DT_FLOAT"}}}, {"name": "PartitionedCall/model_326/tf.math.reduce_mean_41/Mean", "op": "Mean", "input": ["PartitionedCall/model_326/tf.math.add_71/Add", "PartitionedCall/model_326/tf.math.reduce_mean_93/Mean/reduction_indices"], "attr": {"keep_dims": {"b": true}, "Tidx": {"type": "DT_INT32"}, "T": {"type": "DT_FLOAT"}}}, {"name": "PartitionedCall/model_326/tf.math.subtract_10/Sub", "op": "Sub", "input": ["PartitionedCall/model_326/tf.math.add_71/Add", "PartitionedCall/model_326/tf.math.reduce_mean_41/Mean"], "attr": {"T": {"type": "DT_FLOAT"}}}, {"name": "PartitionedCall/model_326/tf.math.multiply_295/ArithmeticOptimizer/ReplaceMulWithSquare_Mul", "op": "Square", "input": ["PartitionedCall/model_326/tf.math.subtract_10/Sub"], "attr": {"T": {"type": "DT_FLOAT"}}}, {"name": "PartitionedCall/model_326/tf.math.reduce_mean_43/Mean", "op": "Mean", "input": ["PartitionedCall/model_326/tf.math.multiply_295/ArithmeticOptimizer/ReplaceMulWithSquare_Mul", "PartitionedCall/model_326/tf.math.reduce_mean_93/Mean/reduction_indices"], "attr": {"T": {"type": "DT_FLOAT"}, "keep_dims": {"b": true}, "Tidx": {"type": "DT_INT32"}}}, {"name": "PartitionedCall/model_326/tf.math.add_73/Add", "op": "AddV2", "input": ["PartitionedCall/model_326/tf.math.reduce_mean_43/Mean", "unknown_152"], "attr": {"T": {"type": "DT_FLOAT"}}}, {"name": "PartitionedCall/model_326/tf.math.sqrt_10/Sqrt", "op": "Rsqrt", "input": ["PartitionedCall/model_326/tf.math.add_73/Add"], "attr": {"T": {"type": "DT_FLOAT"}}}, {"name": "PartitionedCall/model_326/tf.math.divide_15/truediv", "op": "Mul", "input": ["PartitionedCall/model_326/tf.math.multiply_301/Mul/y", "PartitionedCall/model_326/tf.math.sqrt_10/Sqrt"], "attr": {"_grappler:ArithmeticOptimizer:MinimizeBroadcasts": {"b": true}, "T": {"type": "DT_FLOAT"}}}, {"name": "PartitionedCall/model_326/tf.math.multiply_301/Mul", "op": "Mul", "input": ["PartitionedCall/model_326/tf.math.divide_15/truediv", "PartitionedCall/model_326/tf.math.subtract_10/Sub"], "attr": {"T": {"type": "DT_FLOAT"}, "_grappler:ArithmeticOptimizer:MinimizeBroadcasts": {"b": true}}}, {"name": "PartitionedCall/model_326/tf.math.add_74/Add", "op": "AddV2", "input": ["PartitionedCall/model_326/tf.math.multiply_301/Mul", "unknown_69"], "attr": {"T": {"type": "DT_FLOAT"}}}, {"name": "PartitionedCall/model_326/tf.linalg.matmul_61/MatMul", "op": "BatchMatMulV2", "input": ["PartitionedCall/model_326/tf.math.add_74/Add", "unknown_70"], "attr": {"adj_x": {"b": false}, "adj_y": {"b": false}, "T": {"type": "DT_FLOAT"}}}, {"name": "PartitionedCall/model_326/tf.math.add_75/Add", "op": "AddV2", "input": ["PartitionedCall/model_326/tf.linalg.matmul_61/MatMul", "unknown_71"], "attr": {"T": {"type": "DT_FLOAT"}}}, {"name": "PartitionedCall/model_326/tf.reshape_35/Reshape", "op": "Reshape", "input": ["PartitionedCall/model_326/tf.math.add_75/Add", "PartitionedCall/model_326/tf.reshape_77/Reshape/shape"], "attr": {"Tshape": {"type": "DT_INT32"}, "T": {"type": "DT_FLOAT"}}}, {"name": "PartitionedCall/model_326/tf.compat.v1.transpose_128/transpose", "op": "Transpose", "input": ["PartitionedCall/model_326/tf.reshape_35/Reshape", "PartitionedCall/model_326/tf.compat.v1.transpose_285/transpose/perm"], "attr": {"Tperm": {"type": "DT_INT32"}, "T": {"type": "DT_FLOAT"}}}, {"name": "PartitionedCall/model_326/tf.compat.v1.gather_17/GatherV2", "op": "GatherV2", "input": ["PartitionedCall/model_326/tf.compat.v1.transpose_128/transpose", "PartitionedCall/model_326/tf.compat.v1.gather_35/GatherV2/indices", "PartitionedCall/model_326/tf.compat.v1.gather_33/GatherV2/indices"], "attr": {"Taxis": {"type": "DT_INT32"}, "batch_dims": {"i": "0"}, "Tindices": {"type": "DT_INT32"}, "Tparams": {"type": "DT_FLOAT"}}}, {"name": "PartitionedCall/model_326/tf.compat.v1.gather_16/GatherV2", "op": "GatherV2", "input": ["PartitionedCall/model_326/tf.compat.v1.transpose_128/transpose", "PartitionedCall/model_326/tf.compat.v1.gather_34/GatherV2/indices", "PartitionedCall/model_326/tf.compat.v1.gather_33/GatherV2/indices"], "attr": {"Tparams": {"type": "DT_FLOAT"}, "Taxis": {"type": "DT_INT32"}, "batch_dims": {"i": "0"}, "Tindices": {"type": "DT_INT32"}}}, {"name": "PartitionedCall/model_326/tf.compat.v1.gather_15/GatherV2", "op": "GatherV2", "input": ["PartitionedCall/model_326/tf.compat.v1.transpose_128/transpose", "PartitionedCall/model_326/tf.compat.v1.gather_33/GatherV2/indices", "PartitionedCall/model_326/tf.compat.v1.gather_33/GatherV2/indices"], "attr": {"Taxis": {"type": "DT_INT32"}, "batch_dims": {"i": "0"}, "Tindices": {"type": "DT_INT32"}, "Tparams": {"type": "DT_FLOAT"}}}, {"name": "PartitionedCall/model_326/tf.compat.v1.transpose_129/transpose", "op": "Transpose", "input": ["PartitionedCall/model_326/tf.compat.v1.gather_16/GatherV2", "PartitionedCall/model_326/tf.compat.v1.transpose_287/transpose/perm"], "attr": {"T": {"type": "DT_FLOAT"}, "Tperm": {"type": "DT_INT32"}}}, {"name": "PartitionedCall/model_326/tf.math.multiply_310/Mul", "op": "Mul", "input": ["PartitionedCall/model_326/tf.compat.v1.gather_15/GatherV2", "PartitionedCall/model_326/tf.math.multiply_671/Mul/y"], "attr": {"T": {"type": "DT_FLOAT"}}}, {"name": "PartitionedCall/model_326/tf.linalg.matmul_63/MatMul", "op": "BatchMatMulV2", "input": ["PartitionedCall/model_326/tf.math.multiply_310/Mul", "PartitionedCall/model_326/tf.compat.v1.transpose_129/transpose"], "attr": {"adj_x": {"b": false}, "adj_y": {"b": false}, "T": {"type": "DT_FLOAT"}}}, {"name": "PartitionedCall/model_326/tf.nn.softmax_11/wa/blocks.5/attn/Softmax", "op": "Softmax", "input": ["PartitionedCall/model_326/tf.linalg.matmul_63/MatMul"], "attr": {"T": {"type": "DT_FLOAT"}}}, {"name": "PartitionedCall/model_326/tf.linalg.matmul_65/MatMul", "op": "BatchMatMulV2", "input": ["PartitionedCall/model_326/tf.nn.softmax_11/wa/blocks.5/attn/Softmax", "PartitionedCall/model_326/tf.compat.v1.gather_17/GatherV2"], "attr": {"adj_x": {"b": false}, "adj_y": {"b": false}, "T": {"type": "DT_FLOAT"}}}, {"name": "PartitionedCall/model_326/tf.compat.v1.transpose_130/transpose", "op": "Transpose", "input": ["PartitionedCall/model_326/tf.linalg.matmul_65/MatMul", "PartitionedCall/model_326/tf.compat.v1.transpose_288/transpose/perm"], "attr": {"T": {"type": "DT_FLOAT"}, "Tperm": {"type": "DT_INT32"}}}, {"name": "PartitionedCall/model_326/tf.reshape_38/Reshape", "op": "Reshape", "input": ["PartitionedCall/model_326/tf.compat.v1.transpose_130/transpose", "PartitionedCall/model_326/tf.reshape_83/Reshape/shape"], "attr": {"Tshape": {"type": "DT_INT32"}, "T": {"type": "DT_FLOAT"}}}, {"name": "PartitionedCall/model_326/tf.linalg.matmul_67/MatMul", "op": "BatchMatMulV2", "input": ["PartitionedCall/model_326/tf.reshape_38/Reshape", "unknown_72"], "attr": {"adj_x": {"b": false}, "adj_y": {"b": false}, "T": {"type": "DT_FLOAT"}}}, {"name": "PartitionedCall/model_326/tf.math.add_76/Add", "op": "AddV2", "input": ["PartitionedCall/model_326/tf.linalg.matmul_67/MatMul", "unknown_73"], "attr": {"T": {"type": "DT_FLOAT"}}}, {"name": "PartitionedCall/model_326/tf.math.multiply_315/Mul", "op": "Mul", "input": ["PartitionedCall/model_326/tf.math.add_76/Add", "PartitionedCall/model_326/tf.math.multiply_315/Mul/y"], "attr": {"T": {"type": "DT_FLOAT"}}}, {"name": "PartitionedCall/model_326/tf.math.add_77/Add", "op": "AddV2", "input": ["PartitionedCall/model_326/tf.math.add_71/Add", "PartitionedCall/model_326/tf.math.multiply_315/Mul"], "attr": {"T": {"type": "DT_FLOAT"}}}, {"name": "PartitionedCall/model_326/tf.math.reduce_mean_45/Mean", "op": "Mean", "input": ["PartitionedCall/model_326/tf.math.add_77/Add", "PartitionedCall/model_326/tf.math.reduce_mean_93/Mean/reduction_indices"], "attr": {"T": {"type": "DT_FLOAT"}, "keep_dims": {"b": true}, "Tidx": {"type": "DT_INT32"}}}, {"name": "PartitionedCall/model_326/tf.math.subtract_11/Sub", "op": "Sub", "input": ["PartitionedCall/model_326/tf.math.add_77/Add", "PartitionedCall/model_326/tf.math.reduce_mean_45/Mean"], "attr": {"T": {"type": "DT_FLOAT"}}}, {"name": "PartitionedCall/model_326/tf.math.multiply_322/ArithmeticOptimizer/ReplaceMulWithSquare_Mul", "op": "Square", "input": ["PartitionedCall/model_326/tf.math.subtract_11/Sub"], "attr": {"T": {"type": "DT_FLOAT"}}}, {"name": "PartitionedCall/model_326/tf.math.reduce_mean_47/Mean", "op": "Mean", "input": ["PartitionedCall/model_326/tf.math.multiply_322/ArithmeticOptimizer/ReplaceMulWithSquare_Mul", "PartitionedCall/model_326/tf.math.reduce_mean_93/Mean/reduction_indices"], "attr": {"keep_dims": {"b": true}, "Tidx": {"type": "DT_INT32"}, "T": {"type": "DT_FLOAT"}}}, {"name": "PartitionedCall/model_326/tf.math.add_79/Add", "op": "AddV2", "input": ["PartitionedCall/model_326/tf.math.reduce_mean_47/Mean", "unknown_152"], "attr": {"T": {"type": "DT_FLOAT"}}}, {"name": "PartitionedCall/model_326/tf.math.sqrt_11/Sqrt", "op": "Rsqrt", "input": ["PartitionedCall/model_326/tf.math.add_79/Add"], "attr": {"T": {"type": "DT_FLOAT"}}}, {"name": "PartitionedCall/model_326/tf.math.divide_16/truediv", "op": "Mul", "input": ["PartitionedCall/model_326/tf.math.multiply_328/Mul/y", "PartitionedCall/model_326/tf.math.sqrt_11/Sqrt"], "attr": {"_grappler:ArithmeticOptimizer:MinimizeBroadcasts": {"b": true}, "T": {"type": "DT_FLOAT"}}}, {"name": "PartitionedCall/model_326/tf.math.multiply_328/Mul", "op": "Mul", "input": ["PartitionedCall/model_326/tf.math.divide_16/truediv", "PartitionedCall/model_326/tf.math.subtract_11/Sub"], "attr": {"_grappler:ArithmeticOptimizer:MinimizeBroadcasts": {"b": true}, "T": {"type": "DT_FLOAT"}}}, {"name": "PartitionedCall/model_326/tf.math.add_80/Add", "op": "AddV2", "input": ["PartitionedCall/model_326/tf.math.multiply_328/Mul", "unknown_75"], "attr": {"T": {"type": "DT_FLOAT"}}}, {"name": "PartitionedCall/model_326/tf.linalg.matmul_69/MatMul", "op": "BatchMatMulV2", "input": ["PartitionedCall/model_326/tf.math.add_80/Add", "unknown_76"], "attr": {"T": {"type": "DT_FLOAT"}, "adj_x": {"b": false}, "adj_y": {"b": false}}}, {"name": "PartitionedCall/model_326/tf.math.add_81/Add", "op": "AddV2", "input": ["PartitionedCall/model_326/tf.linalg.matmul_69/MatMul", "unknown_77"], "attr": {"T": {"type": "DT_FLOAT"}}}, {"name": "PartitionedCall/model_326/tf.math.multiply_338/Mul", "op": "Mul", "input": ["PartitionedCall/model_326/tf.math.add_81/Add", "PartitionedCall/model_326/tf.math.multiply_704/Mul/y"], "attr": {"T": {"type": "DT_FLOAT"}, "_grappler:ArithmeticOptimizer:MinimizeBroadcasts": {"b": true}}}, {"name": "PartitionedCall/model_326/tf.math.divide_17/truediv", "op": "Mul", "input": ["ConstantFolding/PartitionedCall/model_326/tf.math.divide_35/truediv_recip", "PartitionedCall/model_326/tf.math.add_81/Add"], "attr": {"T": {"type": "DT_FLOAT"}}}, {"name": "PartitionedCall/model_326/tf.math.erf_5/Erf", "op": "Erf", "input": ["PartitionedCall/model_326/tf.math.divide_17/truediv"], "attr": {"T": {"type": "DT_FLOAT"}}}, {"name": "PartitionedCall/model_326/tf.math.add_83/Add", "op": "AddV2", "input": ["PartitionedCall/model_326/tf.math.erf_5/Erf", "unknown_156"], "attr": {"T": {"type": "DT_FLOAT"}}}, {"name": "PartitionedCall/model_326/tf.math.multiply_341/Mul", "op": "Mul", "input": ["PartitionedCall/model_326/tf.math.add_83/Add", "PartitionedCall/model_326/tf.math.multiply_338/Mul"], "attr": {"T": {"type": "DT_FLOAT"}, "_grappler:ArithmeticOptimizer:MinimizeBroadcasts": {"b": true}}}, {"name": "PartitionedCall/model_326/tf.linalg.matmul_71/MatMul", "op": "BatchMatMulV2", "input": ["PartitionedCall/model_326/tf.math.multiply_341/Mul", "unknown_79"], "attr": {"adj_x": {"b": false}, "adj_y": {"b": false}, "T": {"type": "DT_FLOAT"}}}, {"name": "PartitionedCall/model_326/tf.math.add_84/Add", "op": "AddV2", "input": ["PartitionedCall/model_326/tf.linalg.matmul_71/MatMul", "unknown_80"], "attr": {"T": {"type": "DT_FLOAT"}}}, {"name": "PartitionedCall/model_326/tf.math.multiply_346/Mul", "op": "Mul", "input": ["PartitionedCall/model_326/tf.math.add_84/Add", "PartitionedCall/model_326/tf.math.multiply_346/Mul/y"], "attr": {"T": {"type": "DT_FLOAT"}}}, {"name": "PartitionedCall/model_326/tf.math.add_85/Add", "op": "AddV2", "input": ["PartitionedCall/model_326/tf.math.add_77/Add", "PartitionedCall/model_326/tf.math.multiply_346/Mul"], "attr": {"T": {"type": "DT_FLOAT"}}}, {"name": "PartitionedCall/model_326/tf.math.reduce_mean_49/Mean", "op": "Mean", "input": ["PartitionedCall/model_326/tf.math.add_85/Add", "PartitionedCall/model_326/tf.math.reduce_mean_93/Mean/reduction_indices"], "attr": {"keep_dims": {"b": true}, "Tidx": {"type": "DT_INT32"}, "T": {"type": "DT_FLOAT"}}}, {"name": "PartitionedCall/model_326/tf.math.subtract_12/Sub", "op": "Sub", "input": ["PartitionedCall/model_326/tf.math.add_85/Add", "PartitionedCall/model_326/tf.math.reduce_mean_49/Mean"], "attr": {"T": {"type": "DT_FLOAT"}}}, {"name": "PartitionedCall/model_326/tf.math.multiply_353/ArithmeticOptimizer/ReplaceMulWithSquare_Mul", "op": "Square", "input": ["PartitionedCall/model_326/tf.math.subtract_12/Sub"], "attr": {"T": {"type": "DT_FLOAT"}}}, {"name": "PartitionedCall/model_326/tf.math.reduce_mean_51/Mean", "op": "Mean", "input": ["PartitionedCall/model_326/tf.math.multiply_353/ArithmeticOptimizer/ReplaceMulWithSquare_Mul", "PartitionedCall/model_326/tf.math.reduce_mean_93/Mean/reduction_indices"], "attr": {"keep_dims": {"b": true}, "Tidx": {"type": "DT_INT32"}, "T": {"type": "DT_FLOAT"}}}, {"name": "PartitionedCall/model_326/tf.math.add_87/Add", "op": "AddV2", "input": ["PartitionedCall/model_326/tf.math.reduce_mean_51/Mean", "unknown_152"], "attr": {"T": {"type": "DT_FLOAT"}}}, {"name": "PartitionedCall/model_326/tf.math.sqrt_12/Sqrt", "op": "Rsqrt", "input": ["PartitionedCall/model_326/tf.math.add_87/Add"], "attr": {"T": {"type": "DT_FLOAT"}}}, {"name": "PartitionedCall/model_326/tf.math.divide_18/truediv", "op": "Mul", "input": ["PartitionedCall/model_326/tf.math.multiply_359/Mul/y", "PartitionedCall/model_326/tf.math.sqrt_12/Sqrt"], "attr": {"_grappler:ArithmeticOptimizer:MinimizeBroadcasts": {"b": true}, "T": {"type": "DT_FLOAT"}}}, {"name": "PartitionedCall/model_326/tf.math.multiply_359/Mul", "op": "Mul", "input": ["PartitionedCall/model_326/tf.math.divide_18/truediv", "PartitionedCall/model_326/tf.math.subtract_12/Sub"], "attr": {"_grappler:ArithmeticOptimizer:MinimizeBroadcasts": {"b": true}, "T": {"type": "DT_FLOAT"}}}, {"name": "PartitionedCall/model_326/tf.math.add_88/Add", "op": "AddV2", "input": ["PartitionedCall/model_326/tf.math.multiply_359/Mul", "unknown_82"], "attr": {"T": {"type": "DT_FLOAT"}}}, {"name": "PartitionedCall/model_326/tf.linalg.matmul_73/MatMul", "op": "BatchMatMulV2", "input": ["PartitionedCall/model_326/tf.math.add_88/Add", "unknown_83"], "attr": {"adj_x": {"b": false}, "adj_y": {"b": false}, "T": {"type": "DT_FLOAT"}}}, {"name": "PartitionedCall/model_326/tf.math.add_89/Add", "op": "AddV2", "input": ["PartitionedCall/model_326/tf.linalg.matmul_73/MatMul", "unknown_84"], "attr": {"T": {"type": "DT_FLOAT"}}}, {"name": "PartitionedCall/model_326/tf.reshape_41/Reshape", "op": "Reshape", "input": ["PartitionedCall/model_326/tf.math.add_89/Add", "PartitionedCall/model_326/tf.reshape_77/Reshape/shape"], "attr": {"T": {"type": "DT_FLOAT"}, "Tshape": {"type": "DT_INT32"}}}, {"name": "PartitionedCall/model_326/tf.compat.v1.transpose_151/transpose", "op": "Transpose", "input": ["PartitionedCall/model_326/tf.reshape_41/Reshape", "PartitionedCall/model_326/tf.compat.v1.transpose_285/transpose/perm"], "attr": {"Tperm": {"type": "DT_INT32"}, "T": {"type": "DT_FLOAT"}}}, {"name": "PartitionedCall/model_326/tf.compat.v1.gather_20/GatherV2", "op": "GatherV2", "input": ["PartitionedCall/model_326/tf.compat.v1.transpose_151/transpose", "PartitionedCall/model_326/tf.compat.v1.gather_35/GatherV2/indices", "PartitionedCall/model_326/tf.compat.v1.gather_33/GatherV2/indices"], "attr": {"Taxis": {"type": "DT_INT32"}, "batch_dims": {"i": "0"}, "Tindices": {"type": "DT_INT32"}, "Tparams": {"type": "DT_FLOAT"}}}, {"name": "PartitionedCall/model_326/tf.compat.v1.gather_19/GatherV2", "op": "GatherV2", "input": ["PartitionedCall/model_326/tf.compat.v1.transpose_151/transpose", "PartitionedCall/model_326/tf.compat.v1.gather_34/GatherV2/indices", "PartitionedCall/model_326/tf.compat.v1.gather_33/GatherV2/indices"], "attr": {"Taxis": {"type": "DT_INT32"}, "batch_dims": {"i": "0"}, "Tindices": {"type": "DT_INT32"}, "Tparams": {"type": "DT_FLOAT"}}}, {"name": "PartitionedCall/model_326/tf.compat.v1.gather_18/GatherV2", "op": "GatherV2", "input": ["PartitionedCall/model_326/tf.compat.v1.transpose_151/transpose", "PartitionedCall/model_326/tf.compat.v1.gather_33/GatherV2/indices", "PartitionedCall/model_326/tf.compat.v1.gather_33/GatherV2/indices"], "attr": {"Taxis": {"type": "DT_INT32"}, "batch_dims": {"i": "0"}, "Tindices": {"type": "DT_INT32"}, "Tparams": {"type": "DT_FLOAT"}}}, {"name": "PartitionedCall/model_326/tf.compat.v1.transpose_152/transpose", "op": "Transpose", "input": ["PartitionedCall/model_326/tf.compat.v1.gather_19/GatherV2", "PartitionedCall/model_326/tf.compat.v1.transpose_287/transpose/perm"], "attr": {"T": {"type": "DT_FLOAT"}, "Tperm": {"type": "DT_INT32"}}}, {"name": "PartitionedCall/model_326/tf.math.multiply_368/Mul", "op": "Mul", "input": ["PartitionedCall/model_326/tf.compat.v1.gather_18/GatherV2", "PartitionedCall/model_326/tf.math.multiply_671/Mul/y"], "attr": {"T": {"type": "DT_FLOAT"}}}, {"name": "PartitionedCall/model_326/tf.linalg.matmul_75/MatMul", "op": "BatchMatMulV2", "input": ["PartitionedCall/model_326/tf.math.multiply_368/Mul", "PartitionedCall/model_326/tf.compat.v1.transpose_152/transpose"], "attr": {"T": {"type": "DT_FLOAT"}, "adj_x": {"b": false}, "adj_y": {"b": false}}}, {"name": "PartitionedCall/model_326/tf.nn.softmax_13/wa/blocks.6/attn/Softmax", "op": "Softmax", "input": ["PartitionedCall/model_326/tf.linalg.matmul_75/MatMul"], "attr": {"T": {"type": "DT_FLOAT"}}}, {"name": "PartitionedCall/model_326/tf.linalg.matmul_77/MatMul", "op": "BatchMatMulV2", "input": ["PartitionedCall/model_326/tf.nn.softmax_13/wa/blocks.6/attn/Softmax", "PartitionedCall/model_326/tf.compat.v1.gather_20/GatherV2"], "attr": {"adj_x": {"b": false}, "adj_y": {"b": false}, "T": {"type": "DT_FLOAT"}}}, {"name": "PartitionedCall/model_326/tf.compat.v1.transpose_153/transpose", "op": "Transpose", "input": ["PartitionedCall/model_326/tf.linalg.matmul_77/MatMul", "PartitionedCall/model_326/tf.compat.v1.transpose_288/transpose/perm"], "attr": {"Tperm": {"type": "DT_INT32"}, "T": {"type": "DT_FLOAT"}}}, {"name": "PartitionedCall/model_326/tf.reshape_44/Reshape", "op": "Reshape", "input": ["PartitionedCall/model_326/tf.compat.v1.transpose_153/transpose", "PartitionedCall/model_326/tf.reshape_83/Reshape/shape"], "attr": {"T": {"type": "DT_FLOAT"}, "Tshape": {"type": "DT_INT32"}}}, {"name": "PartitionedCall/model_326/tf.linalg.matmul_79/MatMul", "op": "BatchMatMulV2", "input": ["PartitionedCall/model_326/tf.reshape_44/Reshape", "unknown_85"], "attr": {"adj_x": {"b": false}, "adj_y": {"b": false}, "T": {"type": "DT_FLOAT"}}}, {"name": "PartitionedCall/model_326/tf.math.add_90/Add", "op": "AddV2", "input": ["PartitionedCall/model_326/tf.linalg.matmul_79/MatMul", "unknown_86"], "attr": {"T": {"type": "DT_FLOAT"}}}, {"name": "PartitionedCall/model_326/tf.math.multiply_373/Mul", "op": "Mul", "input": ["PartitionedCall/model_326/tf.math.add_90/Add", "PartitionedCall/model_326/tf.math.multiply_373/Mul/y"], "attr": {"T": {"type": "DT_FLOAT"}}}, {"name": "PartitionedCall/model_326/tf.math.add_91/Add", "op": "AddV2", "input": ["PartitionedCall/model_326/tf.math.add_85/Add", "PartitionedCall/model_326/tf.math.multiply_373/Mul"], "attr": {"T": {"type": "DT_FLOAT"}}}, {"name": "PartitionedCall/model_326/tf.math.reduce_mean_53/Mean", "op": "Mean", "input": ["PartitionedCall/model_326/tf.math.add_91/Add", "PartitionedCall/model_326/tf.math.reduce_mean_93/Mean/reduction_indices"], "attr": {"keep_dims": {"b": true}, "Tidx": {"type": "DT_INT32"}, "T": {"type": "DT_FLOAT"}}}, {"name": "PartitionedCall/model_326/tf.math.subtract_13/Sub", "op": "Sub", "input": ["PartitionedCall/model_326/tf.math.add_91/Add", "PartitionedCall/model_326/tf.math.reduce_mean_53/Mean"], "attr": {"T": {"type": "DT_FLOAT"}}}, {"name": "PartitionedCall/model_326/tf.math.multiply_380/ArithmeticOptimizer/ReplaceMulWithSquare_Mul", "op": "Square", "input": ["PartitionedCall/model_326/tf.math.subtract_13/Sub"], "attr": {"T": {"type": "DT_FLOAT"}}}, {"name": "PartitionedCall/model_326/tf.math.reduce_mean_55/Mean", "op": "Mean", "input": ["PartitionedCall/model_326/tf.math.multiply_380/ArithmeticOptimizer/ReplaceMulWithSquare_Mul", "PartitionedCall/model_326/tf.math.reduce_mean_93/Mean/reduction_indices"], "attr": {"T": {"type": "DT_FLOAT"}, "keep_dims": {"b": true}, "Tidx": {"type": "DT_INT32"}}}, {"name": "PartitionedCall/model_326/tf.math.add_93/Add", "op": "AddV2", "input": ["PartitionedCall/model_326/tf.math.reduce_mean_55/Mean", "unknown_152"], "attr": {"T": {"type": "DT_FLOAT"}}}, {"name": "PartitionedCall/model_326/tf.math.sqrt_13/Sqrt", "op": "Rsqrt", "input": ["PartitionedCall/model_326/tf.math.add_93/Add"], "attr": {"T": {"type": "DT_FLOAT"}}}, {"name": "PartitionedCall/model_326/tf.math.divide_19/truediv", "op": "Mul", "input": ["PartitionedCall/model_326/tf.math.multiply_386/Mul/y", "PartitionedCall/model_326/tf.math.sqrt_13/Sqrt"], "attr": {"_grappler:ArithmeticOptimizer:MinimizeBroadcasts": {"b": true}, "T": {"type": "DT_FLOAT"}}}, {"name": "PartitionedCall/model_326/tf.math.multiply_386/Mul", "op": "Mul", "input": ["PartitionedCall/model_326/tf.math.divide_19/truediv", "PartitionedCall/model_326/tf.math.subtract_13/Sub"], "attr": {"T": {"type": "DT_FLOAT"}, "_grappler:ArithmeticOptimizer:MinimizeBroadcasts": {"b": true}}}, {"name": "PartitionedCall/model_326/tf.math.add_94/Add", "op": "AddV2", "input": ["PartitionedCall/model_326/tf.math.multiply_386/Mul", "unknown_88"], "attr": {"T": {"type": "DT_FLOAT"}}}, {"name": "PartitionedCall/model_326/tf.linalg.matmul_81/MatMul", "op": "BatchMatMulV2", "input": ["PartitionedCall/model_326/tf.math.add_94/Add", "unknown_89"], "attr": {"adj_x": {"b": false}, "adj_y": {"b": false}, "T": {"type": "DT_FLOAT"}}}, {"name": "PartitionedCall/model_326/tf.math.add_95/Add", "op": "AddV2", "input": ["PartitionedCall/model_326/tf.linalg.matmul_81/MatMul", "unknown_90"], "attr": {"T": {"type": "DT_FLOAT"}}}, {"name": "PartitionedCall/model_326/tf.math.multiply_396/Mul", "op": "Mul", "input": ["PartitionedCall/model_326/tf.math.add_95/Add", "PartitionedCall/model_326/tf.math.multiply_704/Mul/y"], "attr": {"_grappler:ArithmeticOptimizer:MinimizeBroadcasts": {"b": true}, "T": {"type": "DT_FLOAT"}}}, {"name": "PartitionedCall/model_326/tf.math.divide_20/truediv", "op": "Mul", "input": ["ConstantFolding/PartitionedCall/model_326/tf.math.divide_35/truediv_recip", "PartitionedCall/model_326/tf.math.add_95/Add"], "attr": {"T": {"type": "DT_FLOAT"}}}, {"name": "PartitionedCall/model_326/tf.math.erf_6/Erf", "op": "Erf", "input": ["PartitionedCall/model_326/tf.math.divide_20/truediv"], "attr": {"T": {"type": "DT_FLOAT"}}}, {"name": "PartitionedCall/model_326/tf.math.add_97/Add", "op": "AddV2", "input": ["PartitionedCall/model_326/tf.math.erf_6/Erf", "unknown_156"], "attr": {"T": {"type": "DT_FLOAT"}}}, {"name": "PartitionedCall/model_326/tf.math.multiply_399/Mul", "op": "Mul", "input": ["PartitionedCall/model_326/tf.math.add_97/Add", "PartitionedCall/model_326/tf.math.multiply_396/Mul"], "attr": {"_grappler:ArithmeticOptimizer:MinimizeBroadcasts": {"b": true}, "T": {"type": "DT_FLOAT"}}}, {"name": "PartitionedCall/model_326/tf.linalg.matmul_83/MatMul", "op": "BatchMatMulV2", "input": ["PartitionedCall/model_326/tf.math.multiply_399/Mul", "unknown_92"], "attr": {"adj_x": {"b": false}, "adj_y": {"b": false}, "T": {"type": "DT_FLOAT"}}}, {"name": "PartitionedCall/model_326/tf.math.add_98/Add", "op": "AddV2", "input": ["PartitionedCall/model_326/tf.linalg.matmul_83/MatMul", "unknown_93"], "attr": {"T": {"type": "DT_FLOAT"}}}, {"name": "PartitionedCall/model_326/tf.math.multiply_404/Mul", "op": "Mul", "input": ["PartitionedCall/model_326/tf.math.add_98/Add", "PartitionedCall/model_326/tf.math.multiply_404/Mul/y"], "attr": {"T": {"type": "DT_FLOAT"}}}, {"name": "PartitionedCall/model_326/tf.math.add_99/Add", "op": "AddV2", "input": ["PartitionedCall/model_326/tf.math.add_91/Add", "PartitionedCall/model_326/tf.math.multiply_404/Mul"], "attr": {"T": {"type": "DT_FLOAT"}}}, {"name": "PartitionedCall/model_326/tf.math.reduce_mean_57/Mean", "op": "Mean", "input": ["PartitionedCall/model_326/tf.math.add_99/Add", "PartitionedCall/model_326/tf.math.reduce_mean_93/Mean/reduction_indices"], "attr": {"keep_dims": {"b": true}, "Tidx": {"type": "DT_INT32"}, "T": {"type": "DT_FLOAT"}}}, {"name": "PartitionedCall/model_326/tf.math.subtract_14/Sub", "op": "Sub", "input": ["PartitionedCall/model_326/tf.math.add_99/Add", "PartitionedCall/model_326/tf.math.reduce_mean_57/Mean"], "attr": {"T": {"type": "DT_FLOAT"}}}, {"name": "PartitionedCall/model_326/tf.math.multiply_411/ArithmeticOptimizer/ReplaceMulWithSquare_Mul", "op": "Square", "input": ["PartitionedCall/model_326/tf.math.subtract_14/Sub"], "attr": {"T": {"type": "DT_FLOAT"}}}, {"name": "PartitionedCall/model_326/tf.math.reduce_mean_59/Mean", "op": "Mean", "input": ["PartitionedCall/model_326/tf.math.multiply_411/ArithmeticOptimizer/ReplaceMulWithSquare_Mul", "PartitionedCall/model_326/tf.math.reduce_mean_93/Mean/reduction_indices"], "attr": {"T": {"type": "DT_FLOAT"}, "keep_dims": {"b": true}, "Tidx": {"type": "DT_INT32"}}}, {"name": "PartitionedCall/model_326/tf.math.add_101/Add", "op": "AddV2", "input": ["PartitionedCall/model_326/tf.math.reduce_mean_59/Mean", "unknown_152"], "attr": {"T": {"type": "DT_FLOAT"}}}, {"name": "PartitionedCall/model_326/tf.math.sqrt_14/Sqrt", "op": "Rsqrt", "input": ["PartitionedCall/model_326/tf.math.add_101/Add"], "attr": {"T": {"type": "DT_FLOAT"}}}, {"name": "PartitionedCall/model_326/tf.math.divide_21/truediv", "op": "Mul", "input": ["PartitionedCall/model_326/tf.math.multiply_417/Mul/y", "PartitionedCall/model_326/tf.math.sqrt_14/Sqrt"], "attr": {"T": {"type": "DT_FLOAT"}, "_grappler:ArithmeticOptimizer:MinimizeBroadcasts": {"b": true}}}, {"name": "PartitionedCall/model_326/tf.math.multiply_417/Mul", "op": "Mul", "input": ["PartitionedCall/model_326/tf.math.divide_21/truediv", "PartitionedCall/model_326/tf.math.subtract_14/Sub"], "attr": {"T": {"type": "DT_FLOAT"}, "_grappler:ArithmeticOptimizer:MinimizeBroadcasts": {"b": true}}}, {"name": "PartitionedCall/model_326/tf.math.add_102/Add", "op": "AddV2", "input": ["PartitionedCall/model_326/tf.math.multiply_417/Mul", "unknown_95"], "attr": {"T": {"type": "DT_FLOAT"}}}, {"name": "PartitionedCall/model_326/tf.linalg.matmul_85/MatMul", "op": "BatchMatMulV2", "input": ["PartitionedCall/model_326/tf.math.add_102/Add", "unknown_96"], "attr": {"adj_x": {"b": false}, "adj_y": {"b": false}, "T": {"type": "DT_FLOAT"}}}, {"name": "PartitionedCall/model_326/tf.math.add_103/Add", "op": "AddV2", "input": ["PartitionedCall/model_326/tf.linalg.matmul_85/MatMul", "unknown_97"], "attr": {"T": {"type": "DT_FLOAT"}}}, {"name": "PartitionedCall/model_326/tf.reshape_47/Reshape", "op": "Reshape", "input": ["PartitionedCall/model_326/tf.math.add_103/Add", "PartitionedCall/model_326/tf.reshape_77/Reshape/shape"], "attr": {"T": {"type": "DT_FLOAT"}, "Tshape": {"type": "DT_INT32"}}}, {"name": "PartitionedCall/model_326/tf.compat.v1.transpose_174/transpose", "op": "Transpose", "input": ["PartitionedCall/model_326/tf.reshape_47/Reshape", "PartitionedCall/model_326/tf.compat.v1.transpose_285/transpose/perm"], "attr": {"T": {"type": "DT_FLOAT"}, "Tperm": {"type": "DT_INT32"}}}, {"name": "PartitionedCall/model_326/tf.compat.v1.gather_23/GatherV2", "op": "GatherV2", "input": ["PartitionedCall/model_326/tf.compat.v1.transpose_174/transpose", "PartitionedCall/model_326/tf.compat.v1.gather_35/GatherV2/indices", "PartitionedCall/model_326/tf.compat.v1.gather_33/GatherV2/indices"], "attr": {"Tindices": {"type": "DT_INT32"}, "Tparams": {"type": "DT_FLOAT"}, "Taxis": {"type": "DT_INT32"}, "batch_dims": {"i": "0"}}}, {"name": "PartitionedCall/model_326/tf.compat.v1.gather_22/GatherV2", "op": "GatherV2", "input": ["PartitionedCall/model_326/tf.compat.v1.transpose_174/transpose", "PartitionedCall/model_326/tf.compat.v1.gather_34/GatherV2/indices", "PartitionedCall/model_326/tf.compat.v1.gather_33/GatherV2/indices"], "attr": {"Taxis": {"type": "DT_INT32"}, "batch_dims": {"i": "0"}, "Tindices": {"type": "DT_INT32"}, "Tparams": {"type": "DT_FLOAT"}}}, {"name": "PartitionedCall/model_326/tf.compat.v1.gather_21/GatherV2", "op": "GatherV2", "input": ["PartitionedCall/model_326/tf.compat.v1.transpose_174/transpose", "PartitionedCall/model_326/tf.compat.v1.gather_33/GatherV2/indices", "PartitionedCall/model_326/tf.compat.v1.gather_33/GatherV2/indices"], "attr": {"Taxis": {"type": "DT_INT32"}, "batch_dims": {"i": "0"}, "Tindices": {"type": "DT_INT32"}, "Tparams": {"type": "DT_FLOAT"}}}, {"name": "PartitionedCall/model_326/tf.compat.v1.transpose_175/transpose", "op": "Transpose", "input": ["PartitionedCall/model_326/tf.compat.v1.gather_22/GatherV2", "PartitionedCall/model_326/tf.compat.v1.transpose_287/transpose/perm"], "attr": {"T": {"type": "DT_FLOAT"}, "Tperm": {"type": "DT_INT32"}}}, {"name": "PartitionedCall/model_326/tf.math.multiply_426/Mul", "op": "Mul", "input": ["PartitionedCall/model_326/tf.compat.v1.gather_21/GatherV2", "PartitionedCall/model_326/tf.math.multiply_671/Mul/y"], "attr": {"T": {"type": "DT_FLOAT"}}}, {"name": "PartitionedCall/model_326/tf.linalg.matmul_87/MatMul", "op": "BatchMatMulV2", "input": ["PartitionedCall/model_326/tf.math.multiply_426/Mul", "PartitionedCall/model_326/tf.compat.v1.transpose_175/transpose"], "attr": {"adj_x": {"b": false}, "adj_y": {"b": false}, "T": {"type": "DT_FLOAT"}}}, {"name": "PartitionedCall/model_326/tf.nn.softmax_15/wa/blocks.7/attn/Softmax", "op": "Softmax", "input": ["PartitionedCall/model_326/tf.linalg.matmul_87/MatMul"], "attr": {"T": {"type": "DT_FLOAT"}}}, {"name": "PartitionedCall/model_326/tf.linalg.matmul_89/MatMul", "op": "BatchMatMulV2", "input": ["PartitionedCall/model_326/tf.nn.softmax_15/wa/blocks.7/attn/Softmax", "PartitionedCall/model_326/tf.compat.v1.gather_23/GatherV2"], "attr": {"adj_x": {"b": false}, "adj_y": {"b": false}, "T": {"type": "DT_FLOAT"}}}, {"name": "PartitionedCall/model_326/tf.compat.v1.transpose_176/transpose", "op": "Transpose", "input": ["PartitionedCall/model_326/tf.linalg.matmul_89/MatMul", "PartitionedCall/model_326/tf.compat.v1.transpose_288/transpose/perm"], "attr": {"T": {"type": "DT_FLOAT"}, "Tperm": {"type": "DT_INT32"}}}, {"name": "PartitionedCall/model_326/tf.reshape_50/Reshape", "op": "Reshape", "input": ["PartitionedCall/model_326/tf.compat.v1.transpose_176/transpose", "PartitionedCall/model_326/tf.reshape_83/Reshape/shape"], "attr": {"T": {"type": "DT_FLOAT"}, "Tshape": {"type": "DT_INT32"}}}, {"name": "PartitionedCall/model_326/tf.linalg.matmul_91/MatMul", "op": "BatchMatMulV2", "input": ["PartitionedCall/model_326/tf.reshape_50/Reshape", "unknown_98"], "attr": {"adj_y": {"b": false}, "T": {"type": "DT_FLOAT"}, "adj_x": {"b": false}}}, {"name": "PartitionedCall/model_326/tf.math.add_104/Add", "op": "AddV2", "input": ["PartitionedCall/model_326/tf.linalg.matmul_91/MatMul", "unknown_99"], "attr": {"T": {"type": "DT_FLOAT"}}}, {"name": "PartitionedCall/model_326/tf.math.multiply_431/Mul", "op": "Mul", "input": ["PartitionedCall/model_326/tf.math.add_104/Add", "PartitionedCall/model_326/tf.math.multiply_431/Mul/y"], "attr": {"T": {"type": "DT_FLOAT"}}}, {"name": "PartitionedCall/model_326/tf.math.add_105/Add", "op": "AddV2", "input": ["PartitionedCall/model_326/tf.math.add_99/Add", "PartitionedCall/model_326/tf.math.multiply_431/Mul"], "attr": {"T": {"type": "DT_FLOAT"}}}, {"name": "PartitionedCall/model_326/tf.math.reduce_mean_61/Mean", "op": "Mean", "input": ["PartitionedCall/model_326/tf.math.add_105/Add", "PartitionedCall/model_326/tf.math.reduce_mean_93/Mean/reduction_indices"], "attr": {"keep_dims": {"b": true}, "Tidx": {"type": "DT_INT32"}, "T": {"type": "DT_FLOAT"}}}, {"name": "PartitionedCall/model_326/tf.math.subtract_15/Sub", "op": "Sub", "input": ["PartitionedCall/model_326/tf.math.add_105/Add", "PartitionedCall/model_326/tf.math.reduce_mean_61/Mean"], "attr": {"T": {"type": "DT_FLOAT"}}}, {"name": "PartitionedCall/model_326/tf.math.multiply_438/ArithmeticOptimizer/ReplaceMulWithSquare_Mul", "op": "Square", "input": ["PartitionedCall/model_326/tf.math.subtract_15/Sub"], "attr": {"T": {"type": "DT_FLOAT"}}}, {"name": "PartitionedCall/model_326/tf.math.reduce_mean_63/Mean", "op": "Mean", "input": ["PartitionedCall/model_326/tf.math.multiply_438/ArithmeticOptimizer/ReplaceMulWithSquare_Mul", "PartitionedCall/model_326/tf.math.reduce_mean_93/Mean/reduction_indices"], "attr": {"keep_dims": {"b": true}, "Tidx": {"type": "DT_INT32"}, "T": {"type": "DT_FLOAT"}}}, {"name": "PartitionedCall/model_326/tf.math.add_107/Add", "op": "AddV2", "input": ["PartitionedCall/model_326/tf.math.reduce_mean_63/Mean", "unknown_152"], "attr": {"T": {"type": "DT_FLOAT"}}}, {"name": "PartitionedCall/model_326/tf.math.sqrt_15/Sqrt", "op": "Rsqrt", "input": ["PartitionedCall/model_326/tf.math.add_107/Add"], "attr": {"T": {"type": "DT_FLOAT"}}}, {"name": "PartitionedCall/model_326/tf.math.divide_22/truediv", "op": "Mul", "input": ["PartitionedCall/model_326/tf.math.multiply_444/Mul/y", "PartitionedCall/model_326/tf.math.sqrt_15/Sqrt"], "attr": {"T": {"type": "DT_FLOAT"}, "_grappler:ArithmeticOptimizer:MinimizeBroadcasts": {"b": true}}}, {"name": "PartitionedCall/model_326/tf.math.multiply_444/Mul", "op": "Mul", "input": ["PartitionedCall/model_326/tf.math.divide_22/truediv", "PartitionedCall/model_326/tf.math.subtract_15/Sub"], "attr": {"T": {"type": "DT_FLOAT"}, "_grappler:ArithmeticOptimizer:MinimizeBroadcasts": {"b": true}}}, {"name": "PartitionedCall/model_326/tf.math.add_108/Add", "op": "AddV2", "input": ["Partitio…
ddV2", "input": ["PartitionedCall/model_326/tf.linalg.matmul_139/MatMul", "unknown_151"], "attr": {"T": {"type": "DT_FLOAT"}}}, {"name": "PartitionedCall/model_326/tf.math.multiply_678/Mul", "op": "Mul", "input": ["PartitionedCall/model_326/tf.math.add_180/Add", "PartitionedCall/model_326/tf.math.multiply_678/Mul/y"], "attr": {"T": {"type": "DT_FLOAT"}}}, {"name": "PartitionedCall/model_326/tf.math.add_181/Add", "op": "AddV2", "input": ["PartitionedCall/model_326/tf.math.add_169/Add", "PartitionedCall/model_326/tf.math.multiply_678/Mul"], "attr": {"T": {"type": "DT_FLOAT"}}}, {"name": "PartitionedCall/model_326/tf.math.reduce_mean_93/Mean", "op": "Mean", "input": ["PartitionedCall/model_326/tf.math.add_181/Add", "PartitionedCall/model_326/tf.math.reduce_mean_93/Mean/reduction_indices"], "attr": {"T": {"type": "DT_FLOAT"}, "keep_dims": {"b": true}, "Tidx": {"type": "DT_INT32"}}}, {"name": "PartitionedCall/model_326/tf.math.subtract_23/Sub", "op": "Sub", "input": ["PartitionedCall/model_326/tf.math.add_181/Add", "PartitionedCall/model_326/tf.math.reduce_mean_93/Mean"], "attr": {"T": {"type": "DT_FLOAT"}}}, {"name": "PartitionedCall/model_326/tf.math.multiply_685/ArithmeticOptimizer/ReplaceMulWithSquare_Mul", "op": "Square", "input": ["PartitionedCall/model_326/tf.math.subtract_23/Sub"], "attr": {"T": {"type": "DT_FLOAT"}}}, {"name": "PartitionedCall/model_326/tf.math.reduce_mean_95/Mean", "op": "Mean", "input": ["PartitionedCall/model_326/tf.math.multiply_685/ArithmeticOptimizer/ReplaceMulWithSquare_Mul", "PartitionedCall/model_326/tf.math.reduce_mean_93/Mean/reduction_indices"], "attr": {"T": {"type": "DT_FLOAT"}, "keep_dims": {"b": true}, "Tidx": {"type": "DT_INT32"}}}, {"name": "PartitionedCall/model_326/tf.math.add_183/Add", "op": "AddV2", "input": ["PartitionedCall/model_326/tf.math.reduce_mean_95/Mean", "unknown_152"], "attr": {"T": {"type": "DT_FLOAT"}}}, {"name": "PartitionedCall/model_326/tf.math.sqrt_23/Sqrt", "op": "Rsqrt", "input": ["PartitionedCall/model_326/tf.math.add_183/Add"], "attr": {"T": {"type": "DT_FLOAT"}}}, {"name": "PartitionedCall/model_326/tf.math.divide_34/truediv", "op": "Mul", "input": ["PartitionedCall/model_326/tf.math.multiply_691/Mul/y", "PartitionedCall/model_326/tf.math.sqrt_23/Sqrt"], "attr": {"_grappler:ArithmeticOptimizer:MinimizeBroadcasts": {"b": true}, "T": {"type": "DT_FLOAT"}}}, {"name": "PartitionedCall/model_326/tf.math.multiply_691/Mul", "op": "Mul", "input": ["PartitionedCall/model_326/tf.math.divide_34/truediv", "PartitionedCall/model_326/tf.math.subtract_23/Sub"], "attr": {"_grappler:ArithmeticOptimizer:MinimizeBroadcasts": {"b": true}, "T": {"type": "DT_FLOAT"}}}, {"name": "PartitionedCall/model_326/tf.math.add_184/Add", "op": "AddV2", "input": ["PartitionedCall/model_326/tf.math.multiply_691/Mul", "unknown_153"], "attr": {"T": {"type": "DT_FLOAT"}}}, {"name": "PartitionedCall/model_326/tf.linalg.matmul_141/MatMul", "op": "BatchMatMulV2", "input": ["PartitionedCall/model_326/tf.math.add_184/Add", "unknown_154"], "attr": {"adj_x": {"b": false}, "adj_y": {"b": false}, "T": {"type": "DT_FLOAT"}}}, {"name": "PartitionedCall/model_326/tf.math.add_185/Add", "op": "AddV2", "input": ["PartitionedCall/model_326/tf.linalg.matmul_141/MatMul", "unknown_155"], "attr": {"T": {"type": "DT_FLOAT"}}}, {"name": "PartitionedCall/model_326/tf.math.multiply_701/Mul", "op": "Mul", "input": ["PartitionedCall/model_326/tf.math.add_185/Add", "PartitionedCall/model_326/tf.math.multiply_704/Mul/y"], "attr": {"T": {"type": "DT_FLOAT"}, "_grappler:ArithmeticOptimizer:MinimizeBroadcasts": {"b": true}}}, {"name": "PartitionedCall/model_326/tf.math.divide_35/truediv", "op": "Mul", "input": ["ConstantFolding/PartitionedCall/model_326/tf.math.divide_35/truediv_recip", "PartitionedCall/model_326/tf.math.add_185/Add"], "attr": {"T": {"type": "DT_FLOAT"}}}, {"name": "PartitionedCall/model_326/tf.math.erf_11/Erf", "op": "Erf", "input": ["PartitionedCall/model_326/tf.math.divide_35/truediv"], "attr": {"T": {"type": "DT_FLOAT"}}}, {"name": "PartitionedCall/model_326/tf.math.add_187/Add", "op": "AddV2", "input": ["PartitionedCall/model_326/tf.math.erf_11/Erf", "unknown_156"], "attr": {"T": {"type": "DT_FLOAT"}}}, {"name": "PartitionedCall/model_326/tf.math.multiply_704/Mul", "op": "Mul", "input": ["PartitionedCall/model_326/tf.math.add_187/Add", "PartitionedCall/model_326/tf.math.multiply_701/Mul"], "attr": {"_grappler:ArithmeticOptimizer:MinimizeBroadcasts": {"b": true}, "T": {"type": "DT_FLOAT"}}}, {"name": "PartitionedCall/model_326/tf.linalg.matmul_143/MatMul", "op": "BatchMatMulV2", "input": ["PartitionedCall/model_326/tf.math.multiply_704/Mul", "unknown_157"], "attr": {"adj_x": {"b": false}, "adj_y": {"b": false}, "T": {"type": "DT_FLOAT"}}}, {"name": "PartitionedCall/model_326/tf.math.add_188/Add", "op": "AddV2", "input": ["PartitionedCall/model_326/tf.linalg.matmul_143/MatMul", "unknown_158"], "attr": {"T": {"type": "DT_FLOAT"}}}, {"name": "PartitionedCall/model_326/tf.math.multiply_709/Mul", "op": "Mul", "input": ["PartitionedCall/model_326/tf.math.add_188/Add", "PartitionedCall/model_326/tf.math.multiply_709/Mul/y"], "attr": {"T": {"type": "DT_FLOAT"}}}, {"name": "PartitionedCall/model_326/tf.math.add_189/Add", "op": "AddV2", "input": ["PartitionedCall/model_326/tf.math.add_181/Add", "PartitionedCall/model_326/tf.math.multiply_709/Mul"], "attr": {"T": {"type": "DT_FLOAT"}}}, {"name": "PartitionedCall/model_326/tf.math.reduce_mean_97/Mean", "op": "Mean", "input": ["PartitionedCall/model_326/tf.math.add_189/Add", "PartitionedCall/model_326/tf.math.reduce_mean_93/Mean/reduction_indices"], "attr": {"keep_dims": {"b": true}, "Tidx": {"type": "DT_INT32"}, "T": {"type": "DT_FLOAT"}}}, {"name": "PartitionedCall/model_326/tf.math.subtract_24/Sub", "op": "Sub", "input": ["PartitionedCall/model_326/tf.math.add_189/Add", "PartitionedCall/model_326/tf.math.reduce_mean_97/Mean"], "attr": {"T": {"type": "DT_FLOAT"}}}, {"name": "PartitionedCall/model_326/tf.math.multiply_716/ArithmeticOptimizer/ReplaceMulWithSquare_Mul", "op": "Square", "input": ["PartitionedCall/model_326/tf.math.subtract_24/Sub"], "attr": {"T": {"type": "DT_FLOAT"}}}, {"name": "PartitionedCall/model_326/tf.math.reduce_mean_99/Mean", "op": "Mean", "input": ["PartitionedCall/model_326/tf.math.multiply_716/ArithmeticOptimizer/ReplaceMulWithSquare_Mul", "PartitionedCall/model_326/tf.math.reduce_mean_93/Mean/reduction_indices"], "attr": {"T": {"type": "DT_FLOAT"}, "keep_dims": {"b": true}, "Tidx": {"type": "DT_INT32"}}}, {"name": "PartitionedCall/model_326/tf.math.add_191/Add", "op": "AddV2", "input": ["PartitionedCall/model_326/tf.math.reduce_mean_99/Mean", "unknown_152"], "attr": {"T": {"type": "DT_FLOAT"}}}, {"name": "PartitionedCall/model_326/tf.math.sqrt_24/Sqrt", "op": "Rsqrt", "input": ["PartitionedCall/model_326/tf.math.add_191/Add"], "attr": {"T": {"type": "DT_FLOAT"}}}, {"name": "PartitionedCall/model_326/tf.math.divide_36/truediv", "op": "Mul", "input": ["PartitionedCall/model_326/tf.math.multiply_722/Mul/y", "PartitionedCall/model_326/tf.math.sqrt_24/Sqrt"], "attr": {"_grappler:ArithmeticOptimizer:MinimizeBroadcasts": {"b": true}, "T": {"type": "DT_FLOAT"}}}, {"name": "PartitionedCall/model_326/tf.math.multiply_722/Mul", "op": "Mul", "input": ["PartitionedCall/model_326/tf.math.divide_36/truediv", "PartitionedCall/model_326/tf.math.subtract_24/Sub"], "attr": {"_grappler:ArithmeticOptimizer:MinimizeBroadcasts": {"b": true}, "T": {"type": "DT_FLOAT"}}}, {"name": "PartitionedCall/model_326/tf.math.add_192/Add", "op": "AddV2", "input": ["PartitionedCall/model_326/tf.math.multiply_722/Mul", "unknown_160"], "attr": {"T": {"type": "DT_FLOAT"}}}, {"name": "PartitionedCall/model_326/tf.strided_slice_3/StridedSlice", "op": "StridedSlice", "input": ["PartitionedCall/model_326/tf.math.add_192/Add", "unknown_161", "unknown_162", "PartitionedCall/model_326/tf.strided_slice_3/StridedSlice/strides"], "attr": {"shrink_axis_mask": {"i": "0"}, "ellipsis_mask": {"i": "0"}, "begin_mask": {"i": "5"}, "new_axis_mask": {"i": "0"}, "end_mask": {"i": "5"}, "Index": {"type": "DT_INT64"}, "T": {"type": "DT_FLOAT"}}}, {"name": "PartitionedCall/model_326/tf.compat.v1.transpose_303/transpose", "op": "Transpose", "input": ["PartitionedCall/model_326/tf.strided_slice_3/StridedSlice", "PartitionedCall/model_326/tf.compat.v1.transpose_303/transpose/perm"], "attr": {"Tperm": {"type": "DT_INT32"}, "T": {"type": "DT_FLOAT"}}}, {"name": "PartitionedCall/model_326/tf.reshape_86/Reshape", "op": "Reshape", "input": ["PartitionedCall/model_326/tf.compat.v1.transpose_303/transpose", "PartitionedCall/model_326/tf.reshape_86/Reshape/shape"], "attr": {"T": {"type": "DT_FLOAT"}, "Tshape": {"type": "DT_INT32"}}}, {"name": "PartitionedCall/model_326/tf.compat.v1.transpose_308/transpose", "op": "Transpose", "input": ["PartitionedCall/model_326/tf.reshape_86/Reshape", "PartitionedCall/model_326/tf.compat.v1.transpose_308/transpose/perm"], "attr": {"Tperm": {"type": "DT_INT32"}, "T": {"type": "DT_FLOAT"}}}, {"name": "PartitionedCall/model_326/tf.nn.convolution_13/convolution", "op": "Conv2D", "input": ["PartitionedCall/model_326/tf.compat.v1.transpose_308/transpose", "unknown_163"], "attr": {"dilations": {"list": {"i": ["1", "1", "1", "1"]}}, "T": {"type": "DT_FLOAT"}, "strides": {"list": {"i": ["1", "1", "1", "1"]}}, "data_format": {"s": "TkhXQw=="}, "explicit_paddings": {"list": {}}, "use_cudnn_on_gpu": {"b": true}, "padding": {"s": "U0FNRQ=="}}}, {"name": "PartitionedCall/model_326/tf.math.add_193/Add", "op": "AddV2", "input": ["PartitionedCall/model_326/tf.nn.convolution_13/convolution", "unknown_165"], "attr": {"T": {"type": "DT_FLOAT"}}}, {"name": "PartitionedCall/model_326/tf.compat.v1.pad/Pad", "op": "Pad", "input": ["PartitionedCall/model_326/tf.math.add_193/Add", "unknown_168"], "attr": {"T": {"type": "DT_FLOAT"}, "Tpaddings": {"type": "DT_INT32"}}}, {"name": "PartitionedCall/model_326/tf.nn.convolution_14/convolution", "op": "Conv2D", "input": ["PartitionedCall/model_326/tf.compat.v1.pad/Pad", "unknown_169"], "attr": {"padding": {"s": "VkFMSUQ="}, "dilations": {"list": {"i": ["1", "1", "1", "1"]}}, "T": {"type": "DT_FLOAT"}, "data_format": {"s": "TkhXQw=="}, "strides": {"list": {"i": ["1", "2", "2", "1"]}}, "explicit_paddings": {"list": {}}, "use_cudnn_on_gpu": {"b": true}}}, {"name": "PartitionedCall/model_326/tf.math.add_194/Add", "op": "AddV2", "input": ["PartitionedCall/model_326/tf.nn.convolution_14/convolution", "unknown_170"], "attr": {"T": {"type": "DT_FLOAT"}}}, {"name": "PartitionedCall/model_326/tf.nn.convolution_15/convolution", "op": "Conv2D", "input": ["PartitionedCall/model_326/tf.math.add_194/Add", "unknown_171"], "attr": {"dilations": {"list": {"i": ["1", "1", "1", "1"]}}, "T": {"type": "DT_FLOAT"}, "strides": {"list": {"i": ["1", "1", "1", "1"]}}, "data_format": {"s": "TkhXQw=="}, "explicit_paddings": {"list": {}}, "use_cudnn_on_gpu": {"b": true}, "padding": {"s": "U0FNRQ=="}}}, {"name": "PartitionedCall/model_326/tf.nn.relu_6/Relu", "op": "Relu", "input": ["PartitionedCall/model_326/tf.nn.convolution_15/convolution"], "attr": {"T": {"type": "DT_FLOAT"}}}, {"name": "PartitionedCall/model_326/tf.nn.convolution_16/convolution", "op": "Conv2D", "input": ["PartitionedCall/model_326/tf.nn.relu_6/Relu", "unknown_174"], "attr": {"dilations": {"list": {"i": ["1", "1", "1", "1"]}}, "T": {"type": "DT_FLOAT"}, "strides": {"list": {"i": ["1", "1", "1", "1"]}}, "data_format": {"s": "TkhXQw=="}, "use_cudnn_on_gpu": {"b": true}, "explicit_paddings": {"list": {}}, "padding": {"s": "U0FNRQ=="}}}, {"name": "PartitionedCall/model_326/tf.math.add_195/Add", "op": "AddV2", "input": ["PartitionedCall/model_326/tf.nn.convolution_16/convolution", "unknown_176"], "attr": {"T": {"type": "DT_FLOAT"}}}, {"name": "PartitionedCall/model_326/tf.nn.relu_7/Relu", "op": "Relu", "input": ["PartitionedCall/model_326/tf.math.add_195/Add"], "attr": {"T": {"type": "DT_FLOAT"}}}, {"name": "PartitionedCall/model_326/tf.nn.convolution_17/convolution", "op": "Conv2D", "input": ["PartitionedCall/model_326/tf.nn.relu_7/Relu", "unknown_179"], "attr": {"dilations": {"list": {"i": ["1", "1", "1", "1"]}}, "T": {"type": "DT_FLOAT"}, "data_format": {"s": "TkhXQw=="}, "strides": {"list": {"i": ["1", "1", "1", "1"]}}, "explicit_paddings": {"list": {}}, "use_cudnn_on_gpu": {"b": true}, "padding": {"s": "U0FNRQ=="}}}, {"name": "PartitionedCall/model_326/tf.math.add_198/ArithmeticOptimizer/AddOpsRewrite_Leaf_1_Add", "op": "AddN", "input": ["PartitionedCall/model_326/tf.nn.convolution_15/convolution", "PartitionedCall/model_326/tf.nn.convolution_17/convolution"], "attr": {"T": {"type": "DT_FLOAT"}, "_grappler:ArithmeticOptimizer:AddOpsRewriteStage": {"b": true}, "N": {"i": "2"}}}, {"name": "PartitionedCall/model_326/tf.math.add_198/ArithmeticOptimizer/AddOpsRewrite_Add", "op": "Add", "input": ["PartitionedCall/model_326/tf.math.add_198/ArithmeticOptimizer/AddOpsRewrite_Leaf_1_Add", "unknown_183"], "attr": {"T": {"type": "DT_FLOAT"}, "_grappler:ArithmeticOptimizer:AddOpsRewriteStage": {"b": true}}}, {"name": "PartitionedCall/model_326/tf.compat.v1.image.resize_bilinear/ResizeBilinear", "op": "ResizeBilinear", "input": ["PartitionedCall/model_326/tf.math.add_198/ArithmeticOptimizer/AddOpsRewrite_Add", "unknown_185"], "attr": {"align_corners": {"b": true}, "half_pixel_centers": {"b": false}, "T": {"type": "DT_FLOAT"}}}, {"name": "PartitionedCall/model_326/tf.nn.convolution_18/convolution", "op": "Conv2D", "input": ["PartitionedCall/model_326/tf.compat.v1.image.resize_bilinear/ResizeBilinear", "unknown_187"], "attr": {"padding": {"s": "U0FNRQ=="}, "dilations": {"list": {"i": ["1", "1", "1", "1"]}}, "T": {"type": "DT_FLOAT"}, "strides": {"list": {"i": ["1", "1", "1", "1"]}}, "data_format": {"s": "TkhXQw=="}, "explicit_paddings": {"list": {}}, "use_cudnn_on_gpu": {"b": true}}}, {"name": "PartitionedCall/model_326/tf.math.add_201/ArithmeticOptimizer/AddOpsRewrite_Leaf_1_Add", "op": "AddN", "input": ["PartitionedCall/model_326/tf.nn.convolution_10/convolution", "PartitionedCall/model_326/tf.nn.convolution_12/convolution", "PartitionedCall/model_326/tf.nn.convolution_18/convolution"], "attr": {"T": {"type": "DT_FLOAT"}, "_grappler:ArithmeticOptimizer:AddOpsRewriteStage": {"b": true}, "N": {"i": "3"}}}, {"name": "PartitionedCall/model_326/tf.math.add_201/ArithmeticOptimizer/AddOpsRewrite_Add", "op": "Add", "input": ["PartitionedCall/model_326/tf.math.add_201/ArithmeticOptimizer/AddOpsRewrite_Leaf_0_Add", "PartitionedCall/model_326/tf.math.add_201/ArithmeticOptimizer/AddOpsRewrite_Leaf_1_Add"], "attr": {"T": {"type": "DT_FLOAT"}, "_grappler:ArithmeticOptimizer:AddOpsRewriteStage": {"b": true}}}, {"name": "PartitionedCall/model_326/tf.nn.relu_8/Relu", "op": "Relu", "input": ["PartitionedCall/model_326/tf.math.add_201/ArithmeticOptimizer/AddOpsRewrite_Add"], "attr": {"T": {"type": "DT_FLOAT"}}}, {"name": "PartitionedCall/model_326/tf.nn.convolution_19/convolution", "op": "Conv2D", "input": ["PartitionedCall/model_326/tf.nn.relu_8/Relu", "unknown_192"], "attr": {"padding": {"s": "U0FNRQ=="}, "dilations": {"list": {"i": ["1", "1", "1", "1"]}}, "T": {"type": "DT_FLOAT"}, "data_format": {"s": "TkhXQw=="}, "strides": {"list": {"i": ["1", "1", "1", "1"]}}, "explicit_paddings": {"list": {}}, "use_cudnn_on_gpu": {"b": true}}}, {"name": "PartitionedCall/model_326/tf.math.add_202/Add", "op": "AddV2", "input": ["PartitionedCall/model_326/tf.nn.convolution_19/convolution", "unknown_194"], "attr": {"T": {"type": "DT_FLOAT"}}}, {"name": "PartitionedCall/model_326/tf.nn.relu_9/Relu", "op": "Relu", "input": ["PartitionedCall/model_326/tf.math.add_202/Add"], "attr": {"T": {"type": "DT_FLOAT"}}}, {"name": "PartitionedCall/model_326/tf.nn.convolution_20/convolution", "op": "Conv2D", "input": ["PartitionedCall/model_326/tf.nn.relu_9/Relu", "unknown_197"], "attr": {"dilations": {"list": {"i": ["1", "1", "1", "1"]}}, "T": {"type": "DT_FLOAT"}, "data_format": {"s": "TkhXQw=="}, "strides": {"list": {"i": ["1", "1", "1", "1"]}}, "explicit_paddings": {"list": {}}, "use_cudnn_on_gpu": {"b": true}, "padding": {"s": "U0FNRQ=="}}}, {"name": "PartitionedCall/model_326/tf.math.add_205/ArithmeticOptimizer/AddOpsRewrite_Leaf_1_Add", "op": "AddN", "input": ["PartitionedCall/model_326/tf.math.add_201/ArithmeticOptimizer/AddOpsRewrite_Add", "PartitionedCall/model_326/tf.nn.convolution_20/convolution"], "attr": {"T": {"type": "DT_FLOAT"}, "_grappler:ArithmeticOptimizer:AddOpsRewriteStage": {"b": true}, "N": {"i": "2"}}}, {"name": "PartitionedCall/model_326/tf.math.add_205/ArithmeticOptimizer/AddOpsRewrite_Add", "op": "Add", "input": ["PartitionedCall/model_326/tf.math.add_205/ArithmeticOptimizer/AddOpsRewrite_Leaf_1_Add", "unknown_201"], "attr": {"T": {"type": "DT_FLOAT"}, "_grappler:ArithmeticOptimizer:AddOpsRewriteStage": {"b": true}}}, {"name": "PartitionedCall/model_326/tf.compat.v1.image.resize_bilinear_1/ResizeBilinear", "op": "ResizeBilinear", "input": ["PartitionedCall/model_326/tf.math.add_205/ArithmeticOptimizer/AddOpsRewrite_Add", "unknown_203"], "attr": {"align_corners": {"b": true}, "half_pixel_centers": {"b": false}, "T": {"type": "DT_FLOAT"}}}, {"name": "PartitionedCall/model_326/tf.nn.convolution_21/convolution", "op": "Conv2D", "input": ["PartitionedCall/model_326/tf.compat.v1.image.resize_bilinear_1/ResizeBilinear", "unknown_205"], "attr": {"dilations": {"list": {"i": ["1", "1", "1", "1"]}}, "T": {"type": "DT_FLOAT"}, "strides": {"list": {"i": ["1", "1", "1", "1"]}}, "data_format": {"s": "TkhXQw=="}, "use_cudnn_on_gpu": {"b": true}, "explicit_paddings": {"list": {}}, "padding": {"s": "U0FNRQ=="}}}, {"name": "PartitionedCall/model_326/tf.math.add_208/ArithmeticOptimizer/AddOpsRewrite_Leaf_1_Add", "op": "AddN", "input": ["PartitionedCall/model_326/tf.nn.convolution_21/convolution", "PartitionedCall/model_326/tf.nn.convolution_6/convolution", "PartitionedCall/model_326/tf.nn.convolution_8/convolution"], "attr": {"T": {"type": "DT_FLOAT"}, "_grappler:ArithmeticOptimizer:AddOpsRewriteStage": {"b": true}, "N": {"i": "3"}}}, {"name": "PartitionedCall/model_326/tf.math.add_208/ArithmeticOptimizer/AddOpsRewrite_Add", "op": "Add", "input": ["PartitionedCall/model_326/tf.math.add_208/ArithmeticOptimizer/AddOpsRewrite_Leaf_0_Add", "PartitionedCall/model_326/tf.math.add_208/ArithmeticOptimizer/AddOpsRewrite_Leaf_1_Add"], "attr": {"T": {"type": "DT_FLOAT"}, "_grappler:ArithmeticOptimizer:AddOpsRewriteStage": {"b": true}}}, {"name": "PartitionedCall/model_326/tf.nn.relu_10/Relu", "op": "Relu", "input": ["PartitionedCall/model_326/tf.math.add_208/ArithmeticOptimizer/AddOpsRewrite_Add"], "attr": {"T": {"type": "DT_FLOAT"}}}, {"name": "PartitionedCall/model_326/tf.nn.convolution_22/convolution", "op": "Conv2D", "input": ["PartitionedCall/model_326/tf.nn.relu_10/Relu", "unknown_210"], "attr": {"dilations": {"list": {"i": ["1", "1", "1", "1"]}}, "T": {"type": "DT_FLOAT"}, "data_format": {"s": "TkhXQw=="}, "strides": {"list": {"i": ["1", "1", "1", "1"]}}, "use_cudnn_on_gpu": {"b": true}, "explicit_paddings": {"list": {}}, "padding": {"s": "U0FNRQ=="}}}, {"name": "PartitionedCall/model_326/tf.math.add_209/Add", "op": "AddV2", "input": ["PartitionedCall/model_326/tf.nn.convolution_22/convolution", "unknown_212"], "attr": {"T": {"type": "DT_FLOAT"}}}, {"name": "PartitionedCall/model_326/tf.nn.relu_11/Relu", "op": "Relu", "input": ["PartitionedCall/model_326/tf.math.add_209/Add"], "attr": {"T": {"type": "DT_FLOAT"}}}, {"name": "PartitionedCall/model_326/tf.nn.convolution_23/convolution", "op": "Conv2D", "input": ["PartitionedCall/model_326/tf.nn.relu_11/Relu", "unknown_214"], "attr": {"dilations": {"list": {"i": ["1", "1", "1", "1"]}}, "T": {"type": "DT_FLOAT"}, "strides": {"list": {"i": ["1", "1", "1", "1"]}}, "data_format": {"s": "TkhXQw=="}, "use_cudnn_on_gpu": {"b": true}, "explicit_paddings": {"list": {}}, "padding": {"s": "U0FNRQ=="}}}, {"name": "PartitionedCall/model_326/tf.math.add_212/ArithmeticOptimizer/AddOpsRewrite_Leaf_1_Add", "op": "AddN", "input": ["PartitionedCall/model_326/tf.math.add_208/ArithmeticOptimizer/AddOpsRewrite_Add", "PartitionedCall/model_326/tf.nn.convolution_23/convolution"], "attr": {"_grappler:ArithmeticOptimizer:AddOpsRewriteStage": {"b": true}, "N": {"i": "2"}, "T": {"type": "DT_FLOAT"}}}, {"name": "PartitionedCall/model_326/tf.math.add_212/ArithmeticOptimizer/AddOpsRewrite_Add", "op": "Add", "input": ["PartitionedCall/model_326/tf.math.add_212/ArithmeticOptimizer/AddOpsRewrite_Leaf_1_Add", "unknown_216"], "attr": {"T": {"type": "DT_FLOAT"}, "_grappler:ArithmeticOptimizer:AddOpsRewriteStage": {"b": true}}}, {"name": "PartitionedCall/model_326/tf.compat.v1.image.resize_bilinear_2/ResizeBilinear", "op": "ResizeBilinear", "input": ["PartitionedCall/model_326/tf.math.add_212/ArithmeticOptimizer/AddOpsRewrite_Add", "unknown_218"], "attr": {"align_corners": {"b": true}, "half_pixel_centers": {"b": false}, "T": {"type": "DT_FLOAT"}}}, {"name": "PartitionedCall/model_326/tf.nn.convolution_24/convolution", "op": "Conv2D", "input": ["PartitionedCall/model_326/tf.compat.v1.image.resize_bilinear_2/ResizeBilinear", "unknown_220"], "attr": {"dilations": {"list": {"i": ["1", "1", "1", "1"]}}, "T": {"type": "DT_FLOAT"}, "data_format": {"s": "TkhXQw=="}, "strides": {"list": {"i": ["1", "1", "1", "1"]}}, "explicit_paddings": {"list": {}}, "use_cudnn_on_gpu": {"b": true}, "padding": {"s": "U0FNRQ=="}}}, {"name": "PartitionedCall/model_326/tf.math.add_215/ArithmeticOptimizer/AddOpsRewrite_Leaf_1_Add", "op": "AddN", "input": ["PartitionedCall/model_326/tf.nn.convolution_2/convolution", "PartitionedCall/model_326/tf.nn.convolution_24/convolution", "PartitionedCall/model_326/tf.nn.convolution_4/convolution"], "attr": {"T": {"type": "DT_FLOAT"}, "_grappler:ArithmeticOptimizer:AddOpsRewriteStage": {"b": true}, "N": {"i": "3"}}}, {"name": "PartitionedCall/model_326/tf.math.add_215/ArithmeticOptimizer/AddOpsRewrite_Add", "op": "Add", "input": ["PartitionedCall/model_326/tf.math.add_215/ArithmeticOptimizer/AddOpsRewrite_Leaf_0_Add", "PartitionedCall/model_326/tf.math.add_215/ArithmeticOptimizer/AddOpsRewrite_Leaf_1_Add"], "attr": {"T": {"type": "DT_FLOAT"}, "_grappler:ArithmeticOptimizer:AddOpsRewriteStage": {"b": true}}}, {"name": "PartitionedCall/model_326/tf.nn.relu_12/Relu", "op": "Relu", "input": ["PartitionedCall/model_326/tf.math.add_215/ArithmeticOptimizer/AddOpsRewrite_Add"], "attr": {"T": {"type": "DT_FLOAT"}}}, {"name": "PartitionedCall/model_326/tf.nn.convolution_25/convolution", "op": "Conv2D", "input": ["PartitionedCall/model_326/tf.nn.relu_12/Relu", "unknown_222"], "attr": {"data_format": {"s": "TkhXQw=="}, "strides": {"list": {"i": ["1", "1", "1", "1"]}}, "explicit_paddings": {"list": {}}, "use_cudnn_on_gpu": {"b": true}, "padding": {"s": "U0FNRQ=="}, "dilations": {"list": {"i": ["1", "1", "1", "1"]}}, "T": {"type": "DT_FLOAT"}}}, {"name": "PartitionedCall/model_326/tf.math.add_216/Add", "op": "AddV2", "input": ["PartitionedCall/model_326/tf.nn.convolution_25/convolution", "unknown_223"], "attr": {"T": {"type": "DT_FLOAT"}}}, {"name": "PartitionedCall/model_326/tf.nn.relu_13/Relu", "op": "Relu", "input": ["PartitionedCall/model_326/tf.math.add_216/Add"], "attr": {"T": {"type": "DT_FLOAT"}}}, {"name": "PartitionedCall/model_326/tf.nn.convolution_26/convolution", "op": "Conv2D", "input": ["PartitionedCall/model_326/tf.nn.relu_13/Relu", "unknown_224"], "attr": {"dilations": {"list": {"i": ["1", "1", "1", "1"]}}, "T": {"type": "DT_FLOAT"}, "strides": {"list": {"i": ["1", "1", "1", "1"]}}, "data_format": {"s": "TkhXQw=="}, "use_cudnn_on_gpu": {"b": true}, "explicit_paddings": {"list": {}}, "padding": {"s": "U0FNRQ=="}}}, {"name": "PartitionedCall/model_326/tf.math.add_219/ArithmeticOptimizer/AddOpsRewrite_Leaf_1_Add", "op": "AddN", "input": ["PartitionedCall/model_326/tf.math.add_215/ArithmeticOptimizer/AddOpsRewrite_Add", "PartitionedCall/model_326/tf.nn.convolution_26/convolution"], "attr": {"T": {"type": "DT_FLOAT"}, "_grappler:ArithmeticOptimizer:AddOpsRewriteStage": {"b": true}, "N": {"i": "2"}}}, {"name": "PartitionedCall/model_326/tf.math.add_219/ArithmeticOptimizer/AddOpsRewrite_Add", "op": "Add", "input": ["PartitionedCall/model_326/tf.math.add_219/ArithmeticOptimizer/AddOpsRewrite_Leaf_1_Add", "unknown_225"], "attr": {"T": {"type": "DT_FLOAT"}, "_grappler:ArithmeticOptimizer:AddOpsRewriteStage": {"b": true}}}, {"name": "PartitionedCall/model_326/tf.compat.v1.image.resize_bilinear_3/ResizeBilinear", "op": "ResizeBilinear", "input": ["PartitionedCall/model_326/tf.math.add_219/ArithmeticOptimizer/AddOpsRewrite_Add", "PartitionedCall/model_326/tf.compat.v1.image.resize_bilinear_3/ResizeBilinear/size"], "attr": {"T": {"type": "DT_FLOAT"}, "align_corners": {"b": true}, "half_pixel_centers": {"b": false}}}, {"name": "PartitionedCall/model_326/tf.nn.convolution_27/convolution", "op": "Conv2D", "input": ["PartitionedCall/model_326/tf.compat.v1.image.resize_bilinear_3/ResizeBilinear", "unknown_226"], "attr": {"padding": {"s": "U0FNRQ=="}, "dilations": {"list": {"i": ["1", "1", "1", "1"]}}, "T": {"type": "DT_FLOAT"}, "data_format": {"s": "TkhXQw=="}, "strides": {"list": {"i": ["1", "1", "1", "1"]}}, "use_cudnn_on_gpu": {"b": true}, "explicit_paddings": {"list": {}}}}, {"name": "PartitionedCall/model_326/tf.math.add_220/Add", "op": "AddV2", "input": ["PartitionedCall/model_326/tf.nn.convolution_27/convolution", "unknown_227"], "attr": {"T": {"type": "DT_FLOAT"}}}, {"name": "PartitionedCall/model_326/tf.nn.convolution_28/convolution", "op": "Conv2D", "input": ["PartitionedCall/model_326/tf.math.add_220/Add", "unknown_228"], "attr": {"explicit_paddings": {"list": {}}, "use_cudnn_on_gpu": {"b": true}, "padding": {"s": "U0FNRQ=="}, "dilations": {"list": {"i": ["1", "1", "1", "1"]}}, "T": {"type": "DT_FLOAT"}, "strides": {"list": {"i": ["1", "1", "1", "1"]}}, "data_format": {"s": "TkhXQw=="}}}, {"name": "PartitionedCall/model_326/tf.math.add_221/Add", "op": "AddV2", "input": ["PartitionedCall/model_326/tf.nn.convolution_28/convolution", "unknown_229"], "attr": {"T": {"type": "DT_FLOAT"}}}, {"name": "PartitionedCall/model_326/tf.compat.v1.image.resize_bilinear_4/ResizeBilinear", "op": "ResizeBilinear", "input": ["PartitionedCall/model_326/tf.math.add_221/Add", "unknown_230"], "attr": {"T": {"type": "DT_FLOAT"}, "align_corners": {"b": true}, "half_pixel_centers": {"b": false}}}, {"name": "PartitionedCall/model_326/tf.nn.convolution_29/convolution", "op": "Conv2D", "input": ["PartitionedCall/model_326/tf.compat.v1.image.resize_bilinear_4/ResizeBilinear", "unknown_231"], "attr": {"strides": {"list": {"i": ["1", "1", "1", "1"]}}, "data_format": {"s": "TkhXQw=="}, "use_cudnn_on_gpu": {"b": true}, "explicit_paddings": {"list": {}}, "padding": {"s": "U0FNRQ=="}, "dilations": {"list": {"i": ["1", "1", "1", "1"]}}, "T": {"type": "DT_FLOAT"}}}, {"name": "PartitionedCall/model_326/tf.math.add_222/Add", "op": "AddV2", "input": ["PartitionedCall/model_326/tf.nn.convolution_29/convolution", "unknown_232"], "attr": {"T": {"type": "DT_FLOAT"}}}, {"name": "PartitionedCall/model_326/tf.nn.relu_14/Relu", "op": "Relu", "input": ["PartitionedCall/model_326/tf.math.add_222/Add"], "attr": {"T": {"type": "DT_FLOAT"}}}, {"name": "PartitionedCall/model_326/tf.nn.convolution_30/convolution", "op": "Conv2D", "input": ["PartitionedCall/model_326/tf.nn.relu_14/Relu", "unknown_233"], "attr": {"padding": {"s": "U0FNRQ=="}, "dilations": {"list": {"i": ["1", "1", "1", "1"]}}, "T": {"type": "DT_FLOAT"}, "strides": {"list": {"i": ["1", "1", "1", "1"]}}, "data_format": {"s": "TkhXQw=="}, "use_cudnn_on_gpu": {"b": true}, "explicit_paddings": {"list": {}}}}, {"name": "PartitionedCall/model_326/tf.math.add_223/Add", "op": "AddV2", "input": ["PartitionedCall/model_326/tf.nn.convolution_30/convolution", "unknown_234"], "attr": {"T": {"type": "DT_FLOAT"}}}, {"name": "PartitionedCall/model_326/tf.nn.relu_15/Relu", "op": "Relu", "input": ["PartitionedCall/model_326/tf.math.add_223/Add"], "attr": {"T": {"type": "DT_FLOAT"}}}, {"name": "PartitionedCall/model_326/tf.compat.v1.image.resize_bilinear_5/ResizeBilinear", "op": "ResizeBilinear", "input": ["PartitionedCall/model_326/tf.nn.relu_15/Relu", "unknown_230"], "attr": {"align_corners": {"b": true}, "half_pixel_centers": {"b": false}, "T": {"type": "DT_FLOAT"}}}, {"name": "PartitionedCall/model_326/tf.nn.relu_16/Relu", "op": "Relu", "input": ["PartitionedCall/model_326/tf.compat.v1.image.resize_bilinear_5/ResizeBilinear"], "attr": {"T": {"type": "DT_FLOAT"}}}, {"name": "PartitionedCall/model_326/output/sng_Squeeze_0", "op": "Squeeze", "input": ["PartitionedCall/model_326/tf.nn.relu_16/Relu"], "attr": {"squeeze_dims": {"list": {"i": ["3"]}}, "T": {"type": "DT_FLOAT"}}}, {"name": "Identity", "op": "Identity", "input": ["PartitionedCall/model_326/output/sng_Squeeze_0"], "attr": {"T": {"type": "DT_FLOAT"}}}], "library": {}, "versions": {"producer": 38}}, "weightsManifest": [{"paths": ["group1-shard1of24.bin", "group1-shard2of24.bin", "group1-shard3of24.bin", "group1-shard4of24.bin", "group1-shard5of24.bin", "group1-shard6of24.bin", "group1-shard7of24.bin", "group1-shard8of24.bin", "group1-shard9of24.bin", "group1-shard10of24.bin", "group1-shard11of24.bin", "group1-shard12of24.bin", "group1-shard13of24.bin", "group1-shard14of24.bin", "group1-shard15of24.bin", "group1-shard16of24.bin", "group1-shard17of24.bin", "group1-shard18of24.bin", "group1-shard19of24.bin", "group1-shard20of24.bin", "group1-shard21of24.bin", "group1-shard22of24.bin", "group1-shard23of24.bin", "group1-shard24of24.bin"], "weights": [{"name": "unknown_230", "shape": [2], "dtype": "int32"}, {"name": "unknown_234", "shape": [1], "dtype": "float32"}, {"name": "unknown_233", "shape": [1, 1, 32, 1], "dtype": "float32"}, {"name": "unknown_232", "shape": [32], "dtype": "float32"}, {"name": "unknown_231", "shape": [3, 3, 32, 32], "dtype": "float32"}, {"name": "unknown_229", "shape": [32], "dtype": "float32"}, {"name": "unknown_228", "shape": [3, 3, 64, 32], "dtype": "float32"}, {"name": "unknown_227", "shape": [64], "dtype": "float32"}, {"name": "unknown_226", "shape": [1, 1, 64, 64], "dtype": "float32"}, {"name": "PartitionedCall/model_326/tf.compat.v1.image.resize_bilinear_3/ResizeBilinear/size", "shape": [2], "dtype": "int32"}, {"name": "unknown_225", "shape": [64], "dtype": "float32"}, {"name": "unknown_224", "shape": [3, 3, 64, 64], "dtype": "float32"}, {"name": "unknown_223", "shape": [64], "dtype": "float32"}, {"name": "unknown_222", "shape": [3, 3, 64, 64], "dtype": "float32"}, {"name": "unknown_217", "shape": [3, 3, 64, 64], "dtype": "float32"}, {"name": "unknown_215", "shape": [64], "dtype": "float32"}, {"name": "unknown_213", "shape": [3, 3, 64, 64], "dtype": "float32"}, {"name": "unknown_211", "shape": [3, 3, 48, 64], "dtype": "float32"}, {"name": "unknown_208", "shape": [48], "dtype": "float32"}, {"name": "unknown_206", "shape": [1, 1, 384, 48], "dtype": "float32"}, {"name": "PartitionedCall/model_326/tf.compat.v1.transpose_308/transpose/perm", "shape": [4], "dtype": "int32"}, {"name": "PartitionedCall/model_326/tf.reshape_86/Reshape/shape", "shape": [4], "dtype": "int32"}, {"name": "PartitionedCall/model_326/tf.compat.v1.transpose_303/transpose/perm", "shape": [3], "dtype": "int32"}, {"name": "PartitionedCall/model_326/tf.strided_slice_3/StridedSlice/strides", "shape": [3], "dtype": "int32"}, {"name": "unknown_162", "shape": [3], "dtype": "int32"}, {"name": "unknown_161", "shape": [3], "dtype": "int32"}, {"name": "unknown_160", "shape": [1, 1, 384], "dtype": "float32"}, {"name": "PartitionedCall/model_326/tf.math.multiply_722/Mul/y", "shape": [1, 1, 384], "dtype": "float32"}, {"name": "PartitionedCall/model_326/tf.math.reduce_mean_93/Mean/reduction_indices", "shape": [1], "dtype": "int32"}, {"name": "PartitionedCall/model_326/tf.math.multiply_520/Mul/y", "shape": [1, 1, 384], "dtype": "float32"}, {"name": "unknown_119", "shape": [1, 1, 384], "dtype": "float32"}, {"name": "unknown_118", "shape": [1536, 384], "dtype": "float32"}, {"name": "PartitionedCall/model_326/tf.math.multiply_704/Mul/y", "shape": [], "dtype": "float32"}, {"name": "unknown_116", "shape": [1, 1, 1536], "dtype": "float32"}, {"name": "unknown_115", "shape": [384, 1536], "dtype": "float32"}, {"name": "unknown_114", "shape": [1, 1, 384], "dtype": "float32"}, {"name": "PartitionedCall/model_326/tf.math.multiply_489/Mul/y", "shape": [1, 1, 384], "dtype": "float32"}, {"name": "unknown_112", "shape": [1, 1, 384], "dtype": "float32"}, {"name": "unknown_111", "shape": [384, 384], "dtype": "float32"}, {"name": "PartitionedCall/model_326/tf.reshape_83/Reshape/shape", "shape": [3], "dtype": "int32"}, {"name": "PartitionedCall/model_326/tf.compat.v1.transpose_288/transpose/perm", "shape": [4], "dtype": "int32"}, {"name": "PartitionedCall/model_326/tf.compat.v1.gather_33/GatherV2/indices", "shape": [], "dtype": "int32"}, {"name": "PartitionedCall/model_326/tf.compat.v1.gather_35/GatherV2/indices", "shape": [], "dtype": "int32"}, {"name": "PartitionedCall/model_326/tf.compat.v1.transpose_285/transpose/perm", "shape": [5], "dtype": "int32"}, {"name": "PartitionedCall/model_326/tf.reshape_77/Reshape/shape", "shape": [5], "dtype": "int32"}, {"name": "unknown_110", "shape": [1, 1, 1152], "dtype": "float32"}, {"name": "unknown_109", "shape": [384, 1152], "dtype": "float32"}, {"name": "unknown_108", "shape": [1, 1, 384], "dtype": "float32"}, {"name": "PartitionedCall/model_326/tf.math.multiply_462/Mul/y", "shape": [1, 1, 384], "dtype": "float32"}, {"name": "unknown_106", "shape": [1, 1, 384], "dtype": "float32"}, {"name": "unknown_105", "shape": [1536, 384], "dtype": "float32"}, {"name": "unknown_103", "shape": [1, 1, 1536], "dtype": "float32"}, {"name": "unknown_102", "shape": [384, 1536], "dtype": "float32"}, {"name": "unknown_101", "shape": [1, 1, 384], "dtype": "float32"}, {"name": "PartitionedCall/model_326/tf.math.multiply_431/Mul/y", "shape": [1, 1, 384], "dtype": "float32"}, {"name": "unknown_99", "shape": [1, 1, 384], "dtype": "float32"}, {"name": "unknown_98", "shape": [384, 384], "dtype": "float32"}, {"name": "unknown_97", "shape": [1, 1, 1152], "dtype": "float32"}, {"name": "unknown_96", "shape": [384, 1152], "dtype": "float32"}, {"name": "unknown_95", "shape": [1, 1, 384], "dtype": "float32"}, {"name": "PartitionedCall/model_326/tf.math.multiply_404/Mul/y", "shape": [1, 1, 384], "dtype": "float32"}, {"name": "unknown_93", "shape": [1, 1, 384], "dtype": "float32"}, {"name": "unknown_92", "shape": [1536, 384], "dtype": "float32"}, {"name": "unknown_90", "shape": [1, 1, 1536], "dtype": "float32"}, {"name": "unknown_89", "shape": [384, 1536], "dtype": "float32"}, {"name": "unknown_88", "shape": [1, 1, 384], "dtype": "float32"}, {"name": "PartitionedCall/model_326/tf.math.multiply_373/Mul/y", "shape": [1, 1, 384], "dtype": "float32"}, {"name": "unknown_86", "shape": [1, 1, 384], "dtype": "float32"}, {"name": "unknown_85", "shape": [384, 384], "dtype": "float32"}, {"name": "unknown_84", "shape": [1, 1, 1152], "dtype": "float32"}, {"name": "unknown_83", "shape": [384, 1152], "dtype": "float32"}, {"name": "unknown_82", "shape": [1, 1, 384], "dtype": "float32"}, {"name": "PartitionedCall/model_326/tf.math.multiply_346/Mul/y", "shape": [1, 1, 384], "dtype": "float32"}, {"name": "unknown_80", "shape": [1, 1, 384], "dtype": "float32"}, {"name": "unknown_79", "shape": [1536, 384], "dtype": "float32"}, {"name": "unknown_77", "shape": [1, 1, 1536], "dtype": "float32"}, {"name": "unknown_76", "shape": [384, 1536], "dtype": "float32"}, {"name": "unknown_75", "shape": [1, 1, 384], "dtype": "float32"}, {"name": "PartitionedCall/model_326/tf.math.multiply_315/Mul/y", "shape": [1, 1, 384], "dtype": "float32"}, {"name": "unknown_73", "shape": [1, 1, 384], "dtype": "float32"}, {"name": "unknown_72", "shape": [384, 384], "dtype": "float32"}, {"name": "unknown_71", "shape": [1, 1, 1152], "dtype": "float32"}, {"name": "unknown_70", "shape": [384, 1152], "dtype": "float32"}, {"name": "unknown_69", "shape": [1, 1, 384], "dtype": "float32"}, {"name": "PartitionedCall/model_326/tf.math.multiply_288/Mul/y", "shape": [1, 1, 384], "dtype": "float32"}, {"name": "unknown_67", "shape": [1, 1, 384], "dtype": "float32"}, {"name": "unknown_66", "shape": [1536, 384], "dtype": "float32"}, {"name": "unknown_64", "shape": [1, 1, 1536], "dtype": "float32"}, {"name": "unknown_63", "shape": [384, 1536], "dtype": "float32"}, {"name": "unknown_62", "shape": [1, 1, 384], "dtype": "float32"}, {"name": "PartitionedCall/model_326/tf.math.multiply_257/Mul/y", "shape": [1, 1, 384], "dtype": "float32"}, {"name": "unknown_60", "shape": [1, 1, 384], "dtype": "float32"}, {"name": "unknown_59", "shape": [384, 384], "dtype": "float32"}, {"name": "unknown_58", "shape": [1, 1, 1152], "dtype": "float32"}, {"name": "unknown_57", "shape": [384, 1152], "dtype": "float32"}, {"name": "unknown_56", "shape": [1, 1, 384], "dtype": "float32"}, {"name": "PartitionedCall/model_326/tf.math.multiply_230/Mul/y", "shape": [1, 1, 384], "dtype": "float32"}, {"name": "unknown_54", "shape": [1, 1, 384], "dtype": "float32"}, {"name": "unknown_53", "shape": [1536, 384], "dtype": "float32"}, {"name": "unknown_51", "shape": [1, 1, 1536], "dtype": "float32"}, {"name": "unknown_50", "shape": [384, 1536], "dtype": "float32"}, {"name": "unknown_49", "shape": [1, 1, 384], "dtype": "float32"}, {"name": "PartitionedCall/model_326/tf.math.multiply_199/Mul/y", "shape": [1, 1, 384], "dtype": "float32"}, {"name": "unknown_47", "shape": [1, 1, 384], "dtype": "float32"}, {"name": "unknown_46", "shape": [384, 384], "dtype": "float32"}, {"name": "unknown_45", "shape": [1, 1, 1152], "dtype": "float32"}, {"name": "unknown_44", "shape": [384, 1152], "dtype": "float32"}, {"name": "unknown_43", "shape": [1, 1, 384], "dtype": "float32"}, {"name": "PartitionedCall/model_326/tf.math.multiply_172/Mul/y", "shape": [1, 1, 384], "dtype": "float32"}, {"name": "unknown_41", "shape": [1, 1, 384], "dtype": "float32"}, {"name": "unknown_40", "shape": [1536, 384], "dtype": "float32"}, {"name": "unknown_38", "shape": [1, 1, 1536], "dtype": "float32"}, {"name": "unknown_37", "shape": [384, 1536], "dtype": "float32"}, {"name": "unknown_36", "shape": [1, 1, 384], "dtype": "float32"}, {"name": "PartitionedCall/model_326/tf.math.multiply_141/Mul/y", "shape": [1, 1, 384], "dtype": "float32"}, {"name": "unknown_34", "shape": [1, 1, 384], "dtype": "float32"}, {"name": "unknown_33", "shape": [384, 384], "dtype": "float32"}, {"name": "unknown_32", "shape": [1, 1, 1152], "dtype": "float32"}, {"name": "unknown_31", "shape": [384, 1152], "dtype": "float32"}, {"name": "unknown_30", "shape": [1, 1, 384], "dtype": "float32"}, {"name": "PartitionedCall/model_326/tf.math.multiply_114/Mul/y", "shape": [1, 1, 384], "dtype": "float32"}, {"name": "unknown_28", "shape": [1, 1, 384], "dtype": "float32"}, {"name": "unknown_27", "shape": [1536, 384], "dtype": "float32"}, {"name": "unknown_25", "shape": [1, 1, 1536], "dtype": "float32"}, {"name": "unknown_24", "shape": [384, 1536], "dtype": "float32"}, {"name": "unknown_23", "shape": [1, 1, 384], "dtype": "float32"}, {"name": "PartitionedCall/model_326/tf.math.multiply_83/Mul/y", "shape": [1, 1, 384], "dtype": "float32"}, {"name": "unknown_21", "shape": [1, 1, 384], "dtype": "float32"}, {"name": "unknown_20", "shape": [384, 384], "dtype": "float32"}, {"name": "unknown_19", "shape": [1, 1, 1152], "dtype": "float32"}, {"name": "unknown_18", "shape": [384, 1152], "dtype": "float32"}, {"name": "unknown_17", "shape": [1, 1, 384], "dtype": "float32"}, {"name": "PartitionedCall/model_326/tf.math.multiply_56/Mul/y", "shape": [1, 1, 384], "dtype": "float32"}, {"name": "unknown_15", "shape": [1, 1, 384], "dtype": "float32"}, {"name": "unknown_14", "shape": [1536, 384], "dtype": "float32"}, {"name": "unknown_12", "shape": [1, 1, 1536], "dtype": "float32"}, {"name": "unknown_11", "shape": [384, 1536], "dtype": "float32"}, {"name": "unknown_10", "shape": [1, 1, 384], "dtype": "float32"}, {"name": "PartitionedCall/model_326/tf.math.multiply_25/Mul/y", "shape": [1, 1, 384], "dtype": "float32"}, {"name": "unknown_8", "shape": [1, 1, 384], "dtype": "float32"}, {"name": "unknown_7", "shape": [384, 384], "dtype": "float32"}, {"name": "unknown_6", "shape": [1, 1, 1152], "dtype": "float32"}, {"name": "unknown_5", "shape": [384, 1152], "dtype": "float32"}, {"name": "unknown_4", "shape": [1, 1, 384], "dtype": "float32"}, {"name": "unknown_2", "shape": [1, 1370, 384], "dtype": "float32"}, {"name": "PartitionedCall/model_326/tf.compat.v1.gather_34/GatherV2/indices", "shape": [], "dtype": "int32"}, {"name": "PartitionedCall/model_326/tf.reshape_2/Reshape/shape", "shape": [3], "dtype": "int32"}, {"name": "PartitionedCall/model_326/tf.compat.v1.transpose_2/transpose/perm", "shape": [4], "dtype": "int32"}, {"name": "unknown_0", "shape": [384], "dtype": "float32"}, {"name": "unknown", "shape": [14, 14, 3, 384], "dtype": "float32"}, {"name": "unknown_1", "shape": [1, 1, 384], "dtype": "float32"}, {"name": "unknown_152", "shape": [], "dtype": "float32"}, {"name": "PartitionedCall/model_326/tf.math.multiply_11/Mul/y", "shape": [1, 1, 384], "dtype": "float32"}, {"name": "PartitionedCall/model_326/tf.compat.v1.transpose_287/transpose/perm", "shape": [4], "dtype": "int32"}, {"name": "PartitionedCall/model_326/tf.math.multiply_671/Mul/y", "shape": [], "dtype": "float32"}, {"name": "PartitionedCall/model_326/tf.math.multiply_38/Mul/y", "shape": [1, 1, 384], "dtype": "float32"}, {"name": "unknown_156", "shape": [], "dtype": "float32"}, {"name": "ConstantFolding/PartitionedCall/model_326/tf.math.divide_35/truediv_recip", "shape": [], "dtype": "float32"}, {"name": "PartitionedCall/model_326/tf.math.multiply_69/Mul/y", "shape": [1, 1, 384], "dtype": "float32"}, {"name": "PartitionedCall/model_326/tf.math.multiply_96/Mul/y", "shape": [1, 1, 384], "dtype": "float32"}, {"name": "PartitionedCall/model_326/tf.math.multiply_127/Mul/y", "shape": [1, 1, 384], "dtype": "float32"}, {"name": "PartitionedCall/model_326/tf.math.multiply_154/Mul/y", "shape": [1, 1, 384], "dtype": "float32"}, {"name": "PartitionedCall/model_326/tf.math.multiply_185/Mul/y", "shape": [1, 1, 384], "dtype": "float32"}, {"name": "PartitionedCall/model_326/tf.math.multiply_212/Mul/y", "shape": [1, 1, 384], "dtype": "float32"}, {"name": "PartitionedCall/model_326/tf.math.multiply_243/Mul/y", "shape": [1, 1, 384], "dtype": "float32"}, {"name": "PartitionedCall/model_326/tf.math.multiply_270/Mul/y", "shape": [1, 1, 384], "dtype": "float32"}, {"name": "PartitionedCall/model_326/tf.math.multiply_301/Mul/y", "shape": [1, 1, 384], "dtype": "float32"}, {"name": "PartitionedCall/model_326/tf.math.multiply_328/Mul/y", "shape": [1, 1, 384], "dtype": "float32"}, {"name": "PartitionedCall/model_326/tf.math.multiply_359/Mul/y", "shape": [1, 1, 384], "dtype": "float32"}, {"name": "PartitionedCall/model_326/tf.math.multiply_386/Mul/y", "shape": [1, 1, 384], "dtype": "float32"}, {"name": "PartitionedCall/model_326/tf.math.multiply_417/Mul/y", "shape": [1, 1, 384], "dtype": "float32"}, {"name": "PartitionedCall/model_326/tf.math.multiply_444/Mul/y", "shape": [1, 1, 384], "dtype": "float32"}, {"name": "PartitionedCall/model_326/tf.math.multiply_475/Mul/y", "shape": [1, 1, 384], "dtype": "float32"}, {"name": "PartitionedCall/model_326/tf.math.multiply_502/Mul/y", "shape": [1, 1, 384], "dtype": "float32"}, {"name": "unknown_209", "shape": [4, 4, 48, 48], "dtype": "float32"}, {"name": "PartitionedCall/model_326/tf.nn.conv2d_transpose/conv2d_transpose/input_sizes", "shape": [4], "dtype": "int32"}, {"name": "PartitionedCall/model_326/tf.math.add_134/Add/y", "shape": [48], "dtype": "float32"}, {"name": "unknown_220", "shape": [1, 1, 64, 64], "dtype": "float32"}, {"name": "unknown_218", "shape": [2], "dtype": "int32"}, {"name": "unknown_216", "shape": [64], "dtype": "float32"}, {"name": "unknown_214", "shape": [3, 3, 64, 64], "dtype": "float32"}, {"name": "unknown_212", "shape": [64], "dtype": "float32"}, {"name": "unknown_210", "shape": [3, 3, 64, 64], "dtype": "float32"}, {"name": "unknown_202", "shape": [3, 3, 64, 64], "dtype": "float32"}, {"name": "unknown_200", "shape": [64], "dtype": "float32"}, {"name": "unknown_196", "shape": [3, 3, 64, 64], "dtype": "float32"}, {"name": "unknown_193", "shape": [3, 3, 96, 64], "dtype": "float32"}, {"name": "unknown_190", "shape": [96], "dtype": "float32"}, {"name": "unknown_188", "shape": [1, 1, 384, 96], "dtype": "float32"}, {"name": "PartitionedCall/model_326/tf.math.multiply_583/Mul/y", "shape": [1, 1, 384], "dtype": "float32"}, {"name": "unknown_132", "shape": [1, 1, 384], "dtype": "float32"}, {"name": "unknown_131", "shape": [1536, 384], "dtype": "float32"}, {"name": "unknown_129", "shape": [1, 1, 1536], "dtype": "float32"}, {"name": "unknown_128", "shape": [384, 1536], "dtype": "float32"}, {"name": "unknown_127", "shape": [1, 1, 384], "dtype": "float32"}, {"name": "PartitionedCall/model_326/tf.math.multiply_552/Mul/y", "shape": [1, 1, 384], "dtype": "float32"}, {"name": "unknown_125", "shape": [1, 1, 384], "dtype": "float32"}, {"name": "unknown_124", "shape": [384, 384], "dtype": "float32"}, {"name": "unknown_123", "shape": [1, 1, 1152], "dtype": "float32"}, {"name": "unknown_122", "shape": [384, 1152], "dtype": "float32"}, {"name": "unknown_121", "shape": [1, 1, 384], "dtype": "float32"}, {"name": "PartitionedCall/model_326/tf.math.multiply_533/Mul/y", "shape": [1, 1, 384], "dtype": "float32"}, {"name": "PartitionedCall/model_326/tf.math.multiply_565/Mul/y", "shape": [1, 1, 384], "dtype": "float32"}, {"name": "unknown_191", "shape": [2, 2, 96, 96], "dtype": "float32"}, {"name": "PartitionedCall/model_326/tf.nn.conv2d_transpose_1/conv2d_transpose/input_sizes", "shape": [4], "dtype": "int32"}, {"name": "PartitionedCall/model_326/tf.math.add_155/Add/y", "shape": [96], "dtype": "float32"}, {"name": "unknown_205", "shape": [1, 1, 64, 64], "dtype": "float32"}, {"name": "unknown_203", "shape": [2], "dtype": "int32"}, {"name": "unknown_201", "shape": [64], "dtype": "float32"}, {"name": "unknown_197", "shape": [3, 3, 64, 64], "dtype": "float32"}, {"name": "unknown_194", "shape": [64], "dtype": "float32"}, {"name": "unknown_192", "shape": [3, 3, 64, 64], "dtype": "float32"}, {"name": "unknown_187", "shape": [1, 1, 64, 64], "dtype": "float32"}, {"name": "unknown_185", "shape": [2], "dtype": "int32"}, {"name": "unknown_183", "shape": [64], "dtype": "float32"}, {"name": "unknown_179", "shape": [3, 3, 64, 64], "dtype": "float32"}, {"name": "unknown_176", "shape": [64], "dtype": "float32"}, {"name": "unknown_174", "shape": [3, 3, 64, 64], "dtype": "float32"}, {"name": "unknown_171", "shape": [3, 3, 384, 64], "dtype": "float32"}, {"name": "unknown_170", "shape": [384], "dtype": "float32"}, {"name": "unknown_169", "shape": [3, 3, 384, 384], "dtype": "float32"}, {"name": "unknown_168", "shape": [4, 2], "dtype": "int32"}, {"name": "unknown_165", "shape": [384], "dtype": "float32"}, {"name": "unknown_163", "shape": [1, 1, 384, 384], "dtype": "float32"}, {"name": "PartitionedCall/model_326/tf.math.multiply_709/Mul/y", "shape": [1, 1, 384], "dtype": "float32"}, {"name": "unknown_158", "shape": [1, 1, 384], "dtype": "float32"}, {"name": "unknown_157", "shape": [1536, 384], "dtype": "float32"}, {"name": "unknown_155", "shape": [1, 1, 1536], "dtype": "float32"}, {"name": "unknown_154", "shape": [384, 1536], "dtype": "float32"}, {"name": "unknown_153", "shape": [1, 1, 384], "dtype": "float32"}, {"name": "PartitionedCall/model_326/tf.math.multiply_678/Mul/y", "shape": [1, 1, 384], "dtype": "float32"}, {"name": "unknown_151", "shape": [1, 1, 384], "dtype": "float32"}, {"name": "unknown_150", "shape": [384, 384], "dtype": "float32"}, {"name": "unknown_149", "shape": [1, 1, 1152], "dtype": "float32"}, {"name": "unknown_148", "shape": [384, 1152], "dtype": "float32"}, {"name": "unknown_147", "shape": [1, 1, 384], "dtype": "float32"}, {"name": "PartitionedCall/model_326/tf.math.multiply_659/Mul/y", "shape": [1, 1, 384], "dtype": "float32"}, {"name": "PartitionedCall/model_326/tf.math.multiply_646/Mul/y", "shape": [1, 1, 384], "dtype": "float32"}, {"name": "unknown_145", "shape": [1, 1, 384], "dtype": "float32"}, {"name": "unknown_144", "shape": [1536, 384], "dtype": "float32"}, {"name": "unknown_142", "shape": [1, 1, 1536], "dtype": "float32"}, {"name": "unknown_141", "shape": [384, 1536], "dtype": "float32"}, {"name": "unknown_140", "shape": [1, 1, 384], "dtype": "float32"}, {"name": "PartitionedCall/model_326/tf.math.multiply_615/Mul/y", "shape": [1, 1, 384], "dtype": "float32"}, {"name": "unknown_138", "shape": [1, 1, 384], "dtype": "float32"}, {"name": "unknown_137", "shape": [384, 384], "dtype": "float32"}, {"name": "unknown_136", "shape": [1, 1, 1152], "dtype": "float32"}, {"name": "unknown_135", "shape": [384, 1152], "dtype": "float32"}, {"name": "unknown_134", "shape": [1, 1, 384], "dtype": "float32"}, {"name": "PartitionedCall/model_326/tf.math.multiply_596/Mul/y", "shape": [1, 1, 384], "dtype": "float32"}, {"name": "PartitionedCall/model_326/tf.math.multiply_628/Mul/y", "shape": [1, 1, 384], "dtype": "float32"}, {"name": "PartitionedCall/model_326/tf.math.multiply_691/Mul/y", "shape": [1, 1, 384], "dtype": "float32"}, {"name": "unknown_184", "shape": [3, 3, 64, 64], "dtype": "float32"}, {"name": "unknown_182", "shape": [64], "dtype": "float32"}, {"name": "unknown_178", "shape": [3, 3, 64, 64], "dtype": "float32"}, {"name": "unknown_175", "shape": [3, 3, 192, 64], "dtype": "float32"}, {"name": "unknown_173", "shape": [192], "dtype": "float32"}, {"name": "unknown_172", "shape": [1, 1, 384, 192], "dtype": "float32"}, {"name": "PartitionedCall/model_326/tf.math.add_201/ArithmeticOptimizer/AddOpsRewrite_Leaf_0_Add", "shape": [64], "dtype": "float32"}, {"name": "PartitionedCall/model_326/tf.math.add_208/ArithmeticOptimizer/AddOpsRewrite_Leaf_0_Add", "shape": [64], "dtype": "float32"}, {"name": "PartitionedCall/model_326/tf.math.add_215/ArithmeticOptimizer/AddOpsRewrite_Leaf_0_Add", "shape": [64], "dtype": "float32"}]}]}